…
    "loss": 0.006204287259721452,
    "srocc": 0.6792375112049673,
    "lcc": 0.7457740490362571,
    "rmse": 0.0752427102103496
  },
  "68": {
    "loss": 0.005416587697176508,
    "srocc": 0.6891904063004586,
    "lcc": 0.749609884066801,
    "rmse": 0.07007876795203066
  }
}


Model: "model_18"
__________________________________________________________________________________________________
Layer (type)                    Output Shape         Param #     Connected to
==================================================================================================
input_18 (InputLayer)           (None, 8, 4)         0
__________________________________________________________________________________________________
1x1_initial_conv (Conv1D)       (None, 8, 4)         20          input_18[0][0]
__________________________________________________________________________________________________
dilated_conv_i0_d1 (Conv1D)     (None, 8, 4)         36          1x1_initial_conv[0][0]
__________________________________________________________________________________________________
activation_103 (Activation)     (None, 8, 4)         0           dilated_conv_i0_d1[0][0]
__________________________________________________________________________________________________
dilated_conv_i1_d1 (Conv1D)     (None, 8, 4)         36          activation_103[0][0]
__________________________________________________________________________________________________
1x1_conv_d1 (Conv1D)            (None, 8, 4)         20          1x1_initial_conv[0][0]
__________________________________________________________________________________________________
activation_104 (Activation)     (None, 8, 4)         0           dilated_conv_i1_d1[0][0]
__________________________________________________________________________________________________
add_52 (Add)                    (None, 8, 4)         0           1x1_conv_d1[0][0]
                                                                 activation_104[0][0]
__________________________________________________________________________________________________
activation_105 (Activation)     (None, 8, 4)         0           add_52[0][0]
__________________________________________________________________________________________________
dilated_conv_i0_d2 (Conv1D)     (None, 8, 4)         36          activation_105[0][0]
__________________________________________________________________________________________________
activation_106 (Activation)     (None, 8, 4)         0           dilated_conv_i0_d2[0][0]
__________________________________________________________________________________________________
dilated_conv_i1_d2 (Conv1D)     (None, 8, 4)         36          activation_106[0][0]
__________________________________________________________________________________________________
1x1_conv_d2 (Conv1D)            (None, 8, 4)         20          activation_105[0][0]
__________________________________________________________________________________________________
activation_107 (Activation)     (None, 8, 4)         0           dilated_conv_i1_d2[0][0]
__________________________________________________________________________________________________
add_53 (Add)                    (None, 8, 4)         0           1x1_conv_d2[0][0]
                                                                 activation_107[0][0]
__________________________________________________________________________________________________
activation_108 (Activation)     (None, 8, 4)         0           add_53[0][0]
__________________________________________________________________________________________________
dilated_conv_i0_d4 (Conv1D)     (None, 8, 4)         36          activation_108[0][0]
__________________________________________________________________________________________________
activation_109 (Activation)     (None, 8, 4)         0           dilated_conv_i0_d4[0][0]
__________________________________________________________________________________________________
dilated_conv_i1_d4 (Conv1D)     (None, 8, 4)         36          activation_109[0][0]
__________________________________________________________________________________________________
1x1_conv_d4 (Conv1D)            (None, 8, 4)         20          activation_108[0][0]
__________________________________________________________________________________________________
activation_110 (Activation)     (None, 8, 4)         0           dilated_conv_i1_d4[0][0]
__________________________________________________________________________________________________
add_54 (Add)                    (None, 8, 4)         0           1x1_conv_d4[0][0]
                                                                 activation_110[0][0]
__________________________________________________________________________________________________
activation_111 (Activation)     (None, 8, 4)         0           add_54[0][0]
__________________________________________________________________________________________________
lambda_18 (Lambda)              (None, 1, 4)         0           activation_111[0][0]
__________________________________________________________________________________________________
conv1d_18 (Conv1D)              (None, 1, 1)         4           lambda_18[0][0]
==================================================================================================
Total params: 300
Trainable params: 300
Non-trainable params: 0
__________________________________________________________________________________________________
None
36/36Model: "model_19"
__________________________________________________________________________________________________
Layer (type)                    Output Shape         Param #     Connected to
==================================================================================================
input_19 (InputLayer)           (None, 8, 4)         0
__________________________________________________________________________________________________
1x1_initial_conv (Conv1D)       (None, 8, 8)         40          input_19[0][0]
__________________________________________________________________________________________________
dilated_conv_i0_d1 (Conv1D)     (None, 8, 8)         136         1x1_initial_conv[0][0]
__________________________________________________________________________________________________
activation_112 (Activation)     (None, 8, 8)         0           dilated_conv_i0_d1[0][0]
__________________________________________________________________________________________________
dilated_conv_i1_d1 (Conv1D)     (None, 8, 8)         136         activation_112[0][0]
__________________________________________________________________________________________________
1x1_conv_d1 (Conv1D)            (None, 8, 8)         72          1x1_initial_conv[0][0]
__________________________________________________________________________________________________
activation_113 (Activation)     (None, 8, 8)         0           dilated_conv_i1_d1[0][0]
__________________________________________________________________________________________________
add_55 (Add)                    (None, 8, 8)         0           1x1_conv_d1[0][0]
                                                                 activation_113[0][0]
__________________________________________________________________________________________________
activation_114 (Activation)     (None, 8, 8)         0           add_55[0][0]
__________________________________________________________________________________________________
dilated_conv_i0_d2 (Conv1D)     (None, 8, 8)         136         activation_114[0][0]
__________________________________________________________________________________________________
activation_115 (Activation)     (None, 8, 8)         0           dilated_conv_i0_d2[0][0]
__________________________________________________________________________________________________
dilated_conv_i1_d2 (Conv1D)     (None, 8, 8)         136         activation_115[0][0]
__________________________________________________________________________________________________
1x1_conv_d2 (Conv1D)            (None, 8, 8)         72          activation_114[0][0]
__________________________________________________________________________________________________
activation_116 (Activation)     (None, 8, 8)         0           dilated_conv_i1_d2[0][0]
__________________________________________________________________________________________________
add_56 (Add)                    (None, 8, 8)         0           1x1_conv_d2[0][0]
                                                                 activation_116[0][0]
__________________________________________________________________________________________________
activation_117 (Activation)     (None, 8, 8)         0           add_56[0][0]
__________________________________________________________________________________________________
dilated_conv_i0_d4 (Conv1D)     (None, 8, 8)         136         activation_117[0][0]
__________________________________________________________________________________________________
activation_118 (Activation)     (None, 8, 8)         0           dilated_conv_i0_d4[0][0]
__________________________________________________________________________________________________
dilated_conv_i1_d4 (Conv1D)     (None, 8, 8)         136         activation_118[0][0]
__________________________________________________________________________________________________
1x1_conv_d4 (Conv1D)            (None, 8, 8)         72          activation_117[0][0]
__________________________________________________________________________________________________
activation_119 (Activation)     (None, 8, 8)         0           dilated_conv_i1_d4[0][0]
__________________________________________________________________________________________________
add_57 (Add)                    (None, 8, 8)         0           1x1_conv_d4[0][0]
                                                                 activation_119[0][0]
__________________________________________________________________________________________________
activation_120 (Activation)     (None, 8, 8)         0           add_57[0][0]
__________________________________________________________________________________________________
lambda_19 (Lambda)              (None, 1, 8)         0           activation_120[0][0]
__________________________________________________________________________________________________
conv1d_19 (Conv1D)              (None, 1, 1)         8           lambda_19[0][0]
==================================================================================================
Total params: 1,080
Trainable params: 1,080
Non-trainable params: 0
__________________________________________________________________________________________________
None
36/36Model: "model_20"
__________________________________________________________________________________________________
Layer (type)                    Output Shape         Param #     Connected to
==================================================================================================
input_20 (InputLayer)           (None, 8, 4)         0
__________________________________________________________________________________________________
1x1_initial_conv (Conv1D)       (None, 8, 12)        60          input_20[0][0]
__________________________________________________________________________________________________
dilated_conv_i0_d1 (Conv1D)     (None, 8, 12)        300         1x1_initial_conv[0][0]
__________________________________________________________________________________________________
activation_121 (Activation)     (None, 8, 12)        0           dilated_conv_i0_d1[0][0]
__________________________________________________________________________________________________
dilated_conv_i1_d1 (Conv1D)     (None, 8, 12)        300         activation_121[0][0]
__________________________________________________________________________________________________
1x1_conv_d1 (Conv1D)            (None, 8, 12)        156         1x1_initial_conv[0][0]
__________________________________________________________________________________________________
activation_122 (Activation)     (None, 8, 12)        0           dilated_conv_i1_d1[0][0]
__________________________________________________________________________________________________
add_58 (Add)                    (None, 8, 12)        0           1x1_conv_d1[0][0]
                                                                 activation_122[0][0]
__________________________________________________________________________________________________
activation_123 (Activation)     (None, 8, 12)        0           add_58[0][0]
__________________________________________________________________________________________________
dilated_conv_i0_d2 (Conv1D)     (None, 8, 12)        300         activation_123[0][0]
__________________________________________________________________________________________________
activation_124 (Activation)     (None, 8, 12)        0           dilated_conv_i0_d2[0][0]
__________________________________________________________________________________________________
dilated_conv_i1_d2 (Conv1D)     (None, 8, 12)        300         activation_124[0][0]
__________________________________________________________________________________________________
1x1_conv_d2 (Conv1D)            (None, 8, 12)        156         activation_123[0][0]
__________________________________________________________________________________________________
activation_125 (Activation)     (None, 8, 12)        0           dilated_conv_i1_d2[0][0]
__________________________________________________________________________________________________
add_59 (Add)                    (None, 8, 12)        0           1x1_conv_d2[0][0]
                                                                 activation_125[0][0]
__________________________________________________________________________________________________
activation_126 (Activation)     (None, 8, 12)        0           add_59[0][0]
__________________________________________________________________________________________________
dilated_conv_i0_d4 (Conv1D)     (None, 8, 12)        300         activation_126[0][0]
__________________________________________________________________________________________________
activation_127 (Activation)     (None, 8, 12)        0           dilated_conv_i0_d4[0][0]
__________________________________________________________________________________________________
dilated_conv_i1_d4 (Conv1D)     (None, 8, 12)        300         activation_127[0][0]
__________________________________________________________________________________________________
1x1_conv_d4 (Conv1D)            (None, 8, 12)        156         activation_126[0][0]
__________________________________________________________________________________________________
activation_128 (Activation)     (None, 8, 12)        0           dilated_conv_i1_d4[0][0]
__________________________________________________________________________________________________
add_60 (Add)                    (None, 8, 12)        0           1x1_conv_d4[0][0]
                                                                 activation_128[0][0]
__________________________________________________________________________________________________
activation_129 (Activation)     (None, 8, 12)        0           add_60[0][0]
__________________________________________________________________________________________________
lambda_20 (Lambda)              (None, 1, 12)        0           activation_129[0][0]
__________________________________________________________________________________________________
conv1d_20 (Conv1D)              (None, 1, 1)         12          lambda_20[0][0]
==================================================================================================
Total params: 2,340
Trainable params: 2,340
Non-trainable params: 0
__________________________________________________________________________________________________
None
36/36Model: "model_21"
__________________________________________________________________________________________________
Layer (type)                    Output Shape         Param #     Connected to
==================================================================================================
input_21 (InputLayer)           (None, 8, 4)         0
__________________________________________________________________________________________________
1x1_initial_conv (Conv1D)       (None, 8, 16)        80          input_21[0][0]
__________________________________________________________________________________________________
dilated_conv_i0_d1 (Conv1D)     (None, 8, 16)        528         1x1_initial_conv[0][0]
__________________________________________________________________________________________________
activation_130 (Activation)     (None, 8, 16)        0           dilated_conv_i0_d1[0][0]
__________________________________________________________________________________________________
dilated_conv_i1_d1 (Conv1D)     (None, 8, 16)        528         activation_130[0][0]
__________________________________________________________________________________________________
1x1_conv_d1 (Conv1D)            (None, 8, 16)        272         1x1_initial_conv[0][0]
__________________________________________________________________________________________________
activation_131 (Activation)     (None, 8, 16)        0           dilated_conv_i1_d1[0][0]
__________________________________________________________________________________________________
add_61 (Add)                    (None, 8, 16)        0           1x1_conv_d1[0][0]
                                                                 activation_131[0][0]
__________________________________________________________________________________________________
activation_132 (Activation)     (None, 8, 16)        0           add_61[0][0]
__________________________________________________________________________________________________
dilated_conv_i0_d2 (Conv1D)     (None, 8, 16)        528         activation_132[0][0]
__________________________________________________________________________________________________
activation_133 (Activation)     (None, 8, 16)        0           dilated_conv_i0_d2[0][0]
__________________________________________________________________________________________________
dilated_conv_i1_d2 (Conv1D)     (None, 8, 16)        528         activation_133[0][0]
__________________________________________________________________________________________________
1x1_conv_d2 (Conv1D)            (None, 8, 16)        272         activation_132[0][0]
__________________________________________________________________________________________________
activation_134 (Activation)     (None, 8, 16)        0           dilated_conv_i1_d2[0][0]
__________________________________________________________________________________________________
add_62 (Add)                    (None, 8, 16)        0           1x1_conv_d2[0][0]
                                                                 activation_134[0][0]
__________________________________________________________________________________________________
activation_135 (Activation)     (None, 8, 16)        0           add_62[0][0]
__________________________________________________________________________________________________
dilated_conv_i0_d4 (Conv1D)     (None, 8, 16)        528         activation_135[0][0]
__________________________________________________________________________________________________
activation_136 (Activation)     (None, 8, 16)        0           dilated_conv_i0_d4[0][0]
__________________________________________________________________________________________________
dilated_conv_i1_d4 (Conv1D)     (None, 8, 16)        528         activation_136[0][0]
__________________________________________________________________________________________________
1x1_conv_d4 (Conv1D)            (None, 8, 16)        272         activation_135[0][0]
__________________________________________________________________________________________________
activation_137 (Activation)     (None, 8, 16)        0           dilated_conv_i1_d4[0][0]
__________________________________________________________________________________________________
add_63 (Add)                    (None, 8, 16)        0           1x1_conv_d4[0][0]
                                                                 activation_137[0][0]
__________________________________________________________________________________________________
activation_138 (Activation)     (None, 8, 16)        0           add_63[0][0]
__________________________________________________________________________________________________
lambda_21 (Lambda)              (None, 1, 16)        0           activation_138[0][0]
__________________________________________________________________________________________________
conv1d_21 (Conv1D)              (None, 1, 1)         16          lambda_21[0][0]
==================================================================================================
Total params: 4,080
Trainable params: 4,080
Non-trainable params: 0
__________________________________________________________________________________________________
None
36/36Model: "model_22"
__________________________________________________________________________________________________
Layer (type)                    Output Shape         Param #     Connected to
==================================================================================================
input_22 (InputLayer)           (None, 8, 4)         0
__________________________________________________________________________________________________
1x1_initial_conv (Conv1D)       (None, 8, 20)        100         input_22[0][0]
__________________________________________________________________________________________________
dilated_conv_i0_d1 (Conv1D)     (None, 8, 20)        820         1x1_initial_conv[0][0]
__________________________________________________________________________________________________
activation_139 (Activation)     (None, 8, 20)        0           dilated_conv_i0_d1[0][0]
__________________________________________________________________________________________________
dilated_conv_i1_d1 (Conv1D)     (None, 8, 20)        820         activation_139[0][0]
__________________________________________________________________________________________________
1x1_conv_d1 (Conv1D)            (None, 8, 20)        420         1x1_initial_conv[0][0]
__________________________________________________________________________________________________
activation_140 (Activation)     (None, 8, 20)        0           dilated_conv_i1_d1[0][0]
__________________________________________________________________________________________________
add_64 (Add)                    (None, 8, 20)        0           1x1_conv_d1[0][0]
                                                                 activation_140[0][0]
__________________________________________________________________________________________________
activation_141 (Activation)     (None, 8, 20)        0           add_64[0][0]
__________________________________________________________________________________________________
dilated_conv_i0_d2 (Conv1D)     (None, 8, 20)        820         activation_141[0][0]
__________________________________________________________________________________________________
activation_142 (Activation)     (None, 8, 20)        0           dilated_conv_i0_d2[0][0]
__________________________________________________________________________________________________
dilated_conv_i1_d2 (Conv1D)     (None, 8, 20)        820         activation_142[0][0]
__________________________________________________________________________________________________
1x1_conv_d2 (Conv1D)            (None, 8, 20)        420         activation_141[0][0]
__________________________________________________________________________________________________
activation_143 (Activation)     (None, 8, 20)        0           dilated_conv_i1_d2[0][0]
__________________________________________________________________________________________________
add_65 (Add)                    (None, 8, 20)        0           1x1_conv_d2[0][0]
                                                                 activation_143[0][0]
__________________________________________________________________________________________________
activation_144 (Activation)     (None, 8, 20)        0           add_65[0][0]
__________________________________________________________________________________________________
dilated_conv_i0_d4 (Conv1D)     (None, 8, 20)        820         activation_144[0][0]
__________________________________________________________________________________________________
activation_145 (Activation)     (None, 8, 20)        0           dilated_conv_i0_d4[0][0]
__________________________________________________________________________________________________
dilated_conv_i1_d4 (Conv1D)     (None, 8, 20)        820         activation_145[0][0]
__________________________________________________________________________________________________
1x1_conv_d4 (Conv1D)            (None, 8, 20)        420         activation_144[0][0]
__________________________________________________________________________________________________
activation_146 (Activation)     (None, 8, 20)        0           dilated_conv_i1_d4[0][0]
__________________________________________________________________________________________________
add_66 (Add)                    (None, 8, 20)        0           1x1_conv_d4[0][0]
                                                                 activation_146[0][0]
__________________________________________________________________________________________________
activation_147 (Activation)     (None, 8, 20)        0           add_66[0][0]
__________________________________________________________________________________________________
lambda_22 (Lambda)              (None, 1, 20)        0           activation_147[0][0]
__________________________________________________________________________________________________
conv1d_22 (Conv1D)              (None, 1, 1)         20          lambda_22[0][0]
==================================================================================================
Total params: 6,300
Trainable params: 6,300
Non-trainable params: 0
__________________________________________________________________________________________________
None
36/36Model: "model_23"
__________________________________________________________________________________________________
Layer (type)                    Output Shape         Param #     Connected to
==================================================================================================
input_23 (InputLayer)           (None, 8, 4)         0
__________________________________________________________________________________________________
1x1_initial_conv (Conv1D)       (None, 8, 24)        120         input_23[0][0]
__________________________________________________________________________________________________
dilated_conv_i0_d1 (Conv1D)     (None, 8, 24)        1176        1x1_initial_conv[0][0]
__________________________________________________________________________________________________
activation_148 (Activation)     (None, 8, 24)        0           dilated_conv_i0_d1[0][0]
__________________________________________________________________________________________________
dilated_conv_i1_d1 (Conv1D)     (None, 8, 24)        1176        activation_148[0][0]
__________________________________________________________________________________________________
1x1_conv_d1 (Conv1D)            (None, 8, 24)        600         1x1_initial_conv[0][0]
__________________________________________________________________________________________________
activation_149 (Activation)     (None, 8, 24)        0           dilated_conv_i1_d1[0][0]
__________________________________________________________________________________________________
add_67 (Add)                    (None, 8, 24)        0           1x1_conv_d1[0][0]
                                                                 activation_149[0][0]
__________________________________________________________________________________________________
activation_150 (Activation)     (None, 8, 24)        0           add_67[0][0]
__________________________________________________________________________________________________
dilated_conv_i0_d2 (Conv1D)     (None, 8, 24)        1176        activation_150[0][0]
__________________________________________________________________________________________________
activation_151 (Activation)     (None, 8, 24)        0           dilated_conv_i0_d2[0][0]
__________________________________________________________________________________________________
dilated_conv_i1_d2 (Conv1D)     (None, 8, 24)        1176        activation_151[0][0]
__________________________________________________________________________________________________
1x1_conv_d2 (Conv1D)            (None, 8, 24)        600         activation_150[0][0]
__________________________________________________________________________________________________
activation_152 (Activation)     (None, 8, 24)        0           dilated_conv_i1_d2[0][0]
__________________________________________________________________________________________________
add_68 (Add)                    (None, 8, 24)        0           1x1_conv_d2[0][0]
                                                                 activation_152[0][0]
__________________________________________________________________________________________________
activation_153 (Activation)     (None, 8, 24)        0           add_68[0][0]
__________________________________________________________________________________________________
dilated_conv_i0_d4 (Conv1D)     (None, 8, 24)        1176        activation_153[0][0]
__________________________________________________________________________________________________
activation_154 (Activation)     (None, 8, 24)        0           dilated_conv_i0_d4[0][0]
__________________________________________________________________________________________________
dilated_conv_i1_d4 (Conv1D)     (None, 8, 24)        1176        activation_154[0][0]
__________________________________________________________________________________________________
1x1_conv_d4 (Conv1D)            (None, 8, 24)        600         activation_153[0][0]
__________________________________________________________________________________________________
activation_155 (Activation)     (None, 8, 24)        0           dilated_conv_i1_d4[0][0]
__________________________________________________________________________________________________
add_69 (Add)                    (None, 8, 24)        0           1x1_conv_d4[0][0]
                                                                 activation_155[0][0]
__________________________________________________________________________________________________
activation_156 (Activation)     (None, 8, 24)        0           add_69[0][0]
__________________________________________________________________________________________________
lambda_23 (Lambda)              (None, 1, 24)        0           activation_156[0][0]
__________________________________________________________________________________________________
conv1d_23 (Conv1D)              (None, 1, 1)         24          lambda_23[0][0]
==================================================================================================
Total params: 9,000
Trainable params: 9,000
Non-trainable params: 0
__________________________________________________________________________________________________
None
36/36Model: "model_24"
__________________________________________________________________________________________________
Layer (type)                    Output Shape         Param #     Connected to
==================================================================================================
input_24 (InputLayer)           (None, 8, 4)         0
__________________________________________________________________________________________________
1x1_initial_conv (Conv1D)       (None, 8, 28)        140         input_24[0][0]
__________________________________________________________________________________________________
dilated_conv_i0_d1 (Conv1D)     (None, 8, 28)        1596        1x1_initial_conv[0][0]
__________________________________________________________________________________________________
activation_157 (Activation)     (None, 8, 28)        0           dilated_conv_i0_d1[0][0]
__________________________________________________________________________________________________
dilated_conv_i1_d1 (Conv1D)     (None, 8, 28)        1596        activation_157[0][0]
__________________________________________________________________________________________________
1x1_conv_d1 (Conv1D)            (None, 8, 28)        812         1x1_initial_conv[0][0]
__________________________________________________________________________________________________
activation_158 (Activation)     (None, 8, 28)        0           dilated_conv_i1_d1[0][0]
__________________________________________________________________________________________________
add_70 (Add)                    (None, 8, 28)        0           1x1_conv_d1[0][0]
                                                                 activation_158[0][0]
__________________________________________________________________________________________________
activation_159 (Activation)     (None, 8, 28)        0           add_70[0][0]
__________________________________________________________________________________________________
dilated_conv_i0_d2 (Conv1D)     (None, 8, 28)        1596        activation_159[0][0]
__________________________________________________________________________________________________
activation_160 (Activation)     (None, 8, 28)        0           dilated_conv_i0_d2[0][0]
__________________________________________________________________________________________________
dilated_conv_i1_d2 (Conv1D)     (None, 8, 28)        1596        activation_160[0][0]
__________________________________________________________________________________________________
1x1_conv_d2 (Conv1D)            (None, 8, 28)        812         activation_159[0][0]
__________________________________________________________________________________________________
activation_161 (Activation)     (None, 8, 28)        0           dilated_conv_i1_d2[0][0]
__________________________________________________________________________________________________
add_71 (Add)                    (None, 8, 28)        0           1x1_conv_d2[0][0]
                                                                 activation_161[0][0]
__________________________________________________________________________________________________
activation_162 (Activation)     (None, 8, 28)        0           add_71[0][0]
__________________________________________________________________________________________________
dilated_conv_i0_d4 (Conv1D)     (None, 8, 28)        1596        activation_162[0][0]
__________________________________________________________________________________________________
activation_163 (Activation)     (None, 8, 28)        0           dilated_conv_i0_d4[0][0]
__________________________________________________________________________________________________
dilated_conv_i1_d4 (Conv1D)     (None, 8, 28)        1596        activation_163[0][0]
__________________________________________________________________________________________________
1x1_conv_d4 (Conv1D)            (None, 8, 28)        812         activation_162[0][0]
__________________________________________________________________________________________________
activation_164 (Activation)     (None, 8, 28)        0           dilated_conv_i1_d4[0][0]
__________________________________________________________________________________________________
add_72 (Add)                    (None, 8, 28)        0           1x1_conv_d4[0][0]
                                                                 activation_164[0][0]
__________________________________________________________________________________________________
activation_165 (Activation)     (None, 8, 28)        0           add_72[0][0]
__________________________________________________________________________________________________
lambda_24 (Lambda)              (None, 1, 28)        0           activation_165[0][0]
__________________________________________________________________________________________________
conv1d_24 (Conv1D)              (None, 1, 1)         28          lambda_24[0][0]
==================================================================================================
Total params: 12,180
Trainable params: 12,180
Non-trainable params: 0
__________________________________________________________________________________________________
None
36/36Model: "model_25"
__________________________________________________________________________________________________
Layer (type)                    Output Shape         Param #     Connected to
==================================================================================================
input_25 (InputLayer)           (None, 8, 4)         0
__________________________________________________________________________________________________
1x1_initial_conv (Conv1D)       (None, 8, 32)        160         input_25[0][0]
__________________________________________________________________________________________________
dilated_conv_i0_d1 (Conv1D)     (None, 8, 32)        2080        1x1_initial_conv[0][0]
__________________________________________________________________________________________________
activation_166 (Activation)     (None, 8, 32)        0           dilated_conv_i0_d1[0][0]
__________________________________________________________________________________________________
dilated_conv_i1_d1 (Conv1D)     (None, 8, 32)        2080        activation_166[0][0]
__________________________________________________________________________________________________
1x1_conv_d1 (Conv1D)            (None, 8, 32)        1056        1x1_initial_conv[0][0]
__________________________________________________________________________________________________
activation_167 (Activation)     (None, 8, 32)        0           dilated_conv_i1_d1[0][0]
__________________________________________________________________________________________________
add_73 (Add)                    (None, 8, 32)        0           1x1_conv_d1[0][0]
                                                                 activation_167[0][0]
__________________________________________________________________________________________________
activation_168 (Activation)     (None, 8, 32)        0           add_73[0][0]
__________________________________________________________________________________________________
dilated_conv_i0_d2 (Conv1D)     (None, 8, 32)        2080        activation_168[0][0]
__________________________________________________________________________________________________
activation_169 (Activation)     (None, 8, 32)        0           dilated_conv_i0_d2[0][0]
__________________________________________________________________________________________________
dilated_conv_i1_d2 (Conv1D)     (None, 8, 32)        2080        activation_169[0][0]
__________________________________________________________________________________________________
1x1_conv_d2 (Conv1D)            (None, 8, 32)        1056        activation_168[0][0]
__________________________________________________________________________________________________
activation_170 (Activation)     (None, 8, 32)        0           dilated_conv_i1_d2[0][0]
__________________________________________________________________________________________________
add_74 (Add)                    (None, 8, 32)        0           1x1_conv_d2[0][0]
                                                                 activation_170[0][0]
__________________________________________________________________________________________________
activation_171 (Activation)     (None, 8, 32)        0           add_74[0][0]
__________________________________________________________________________________________________
dilated_conv_i0_d4 (Conv1D)     (None, 8, 32)        2080        activation_171[0][0]
__________________________________________________________________________________________________
activation_172 (Activation)     (None, 8, 32)        0           dilated_conv_i0_d4[0][0]
__________________________________________________________________________________________________
dilated_conv_i1_d4 (Conv1D)     (None, 8, 32)        2080        activation_172[0][0]
__________________________________________________________________________________________________
1x1_conv_d4 (Conv1D)            (None, 8, 32)        1056        activation_171[0][0]
__________________________________________________________________________________________________
activation_173 (Activation)     (None, 8, 32)        0           dilated_conv_i1_d4[0][0]
__________________________________________________________________________________________________
add_75 (Add)                    (None, 8, 32)        0           1x1_conv_d4[0][0]
                                                                 activation_173[0][0]
__________________________________________________________________________________________________
activation_174 (Activation)     (None, 8, 32)        0           add_75[0][0]
__________________________________________________________________________________________________
lambda_25 (Lambda)              (None, 1, 32)        0           activation_174[0][0]
__________________________________________________________________________________________________
conv1d_25 (Conv1D)              (None, 1, 1)         32          lambda_25[0][0]
==================================================================================================
Total params: 15,840
Trainable params: 15,840
Non-trainable params: 0
__________________________________________________________________________________________________
None
36/36Model: "model_26"
__________________________________________________________________________________________________
Layer (type)                    Output Shape         Param #     Connected to
==================================================================================================
input_26 (InputLayer)           (None, 8, 4)         0
__________________________________________________________________________________________________
1x1_initial_conv (Conv1D)       (None, 8, 36)        180         input_26[0][0]
__________________________________________________________________________________________________
dilated_conv_i0_d1 (Conv1D)     (None, 8, 36)        2628        1x1_initial_conv[0][0]
__________________________________________________________________________________________________
activation_175 (Activation)     (None, 8, 36)        0           dilated_conv_i0_d1[0][0]
__________________________________________________________________________________________________
dilated_conv_i1_d1 (Conv1D)     (None, 8, 36)        2628        activation_175[0][0]
__________________________________________________________________________________________________
1x1_conv_d1 (Conv1D)            (None, 8, 36)        1332        1x1_initial_conv[0][0]
__________________________________________________________________________________________________
activation_176 (Activation)     (None, 8, 36)        0           dilated_conv_i1_d1[0][0]
__________________________________________________________________________________________________
add_76 (Add)                    (None, 8, 36)        0           1x1_conv_d1[0][0]
                                                                 activation_176[0][0]
__________________________________________________________________________________________________
activation_177 (Activation)     (None, 8, 36)        0           add_76[0][0]
__________________________________________________________________________________________________
dilated_conv_i0_d2 (Conv1D)     (None, 8, 36)        2628        activation_177[0][0]
__________________________________________________________________________________________________
activation_178 (Activation)     (None, 8, 36)        0           dilated_conv_i0_d2[0][0]
__________________________________________________________________________________________________
dilated_conv_i1_d2 (Conv1D)     (None, 8, 36)        2628        activation_178[0][0]
__________________________________________________________________________________________________
1x1_conv_d2 (Conv1D)            (None, 8, 36)        1332        activation_177[0][0]
__________________________________________________________________________________________________
activation_179 (Activation)     (None, 8, 36)        0           dilated_conv_i1_d2[0][0]
__________________________________________________________________________________________________
add_77 (Add)                    (None, 8, 36)        0           1x1_conv_d2[0][0]
                                                                 activation_179[0][0]
__________________________________________________________________________________________________
activation_180 (Activation)     (None, 8, 36)        0           add_77[0][0]
__________________________________________________________________________________________________
dilated_conv_i0_d4 (Conv1D)     (None, 8, 36)        2628        activation_180[0][0]
__________________________________________________________________________________________________
activation_181 (Activation)     (None, 8, 36)        0           dilated_conv_i0_d4[0][0]
__________________________________________________________________________________________________
dilated_conv_i1_d4 (Conv1D)     (None, 8, 36)        2628        activation_181[0][0]
__________________________________________________________________________________________________
1x1_conv_d4 (Conv1D)            (None, 8, 36)        1332        activation_180[0][0]
__________________________________________________________________________________________________
activation_182 (Activation)     (None, 8, 36)        0           dilated_conv_i1_d4[0][0]
__________________________________________________________________________________________________
add_78 (Add)                    (None, 8, 36)        0           1x1_conv_d4[0][0]
                                                                 activation_182[0][0]
__________________________________________________________________________________________________
activation_183 (Activation)     (None, 8, 36)        0           add_78[0][0]
__________________________________________________________________________________________________
lambda_26 (Lambda)              (None, 1, 36)        0           activation_183[0][0]
__________________________________________________________________________________________________
conv1d_26 (Conv1D)              (None, 1, 1)         36          lambda_26[0][0]
==================================================================================================
Total params: 19,980
Trainable params: 19,980
Non-trainable params: 0
__________________________________________________________________________________________________
None
36/36Model: "model_27"
__________________________________________________________________________________________________
Layer (type)                    Output Shape         Param #     Connected to
==================================================================================================
input_27 (InputLayer)           (None, 8, 4)         0
__________________________________________________________________________________________________
1x1_initial_conv (Conv1D)       (None, 8, 40)        200         input_27[0][0]
__________________________________________________________________________________________________
dilated_conv_i0_d1 (Conv1D)     (None, 8, 40)        3240        1x1_initial_conv[0][0]
__________________________________________________________________________________________________
activation_184 (Activation)     (None, 8, 40)        0           dilated_conv_i0_d1[0][0]
__________________________________________________________________________________________________
dilated_conv_i1_d1 (Conv1D)     (None, 8, 40)        3240        activation_184[0][0]
__________________________________________________________________________________________________
1x1_conv_d1 (Conv1D)            (None, 8, 40)        1640        1x1_initial_conv[0][0]
__________________________________________________________________________________________________
activation_185 (Activation)     (None, 8, 40)        0           dilated_conv_i1_d1[0][0]
__________________________________________________________________________________________________
add_79 (Add)                    (None, 8, 40)        0           1x1_conv_d1[0][0]
                                                                 activation_185[0][0]
__________________________________________________________________________________________________
activation_186 (Activation)     (None, 8, 40)        0           add_79[0][0]
__________________________________________________________________________________________________
dilated_conv_i0_d2 (Conv1D)     (None, 8, 40)        3240        activation_186[0][0]
__________________________________________________________________________________________________
activation_187 (Activation)     (None, 8, 40)        0           dilated_conv_i0_d2[0][0]
__________________________________________________________________________________________________
dilated_conv_i1_d2 (Conv1D)     (None, 8, 40)        3240        activation_187[0][0]
__________________________________________________________________________________________________
1x1_conv_d2 (Conv1D)            (None, 8, 40)        1640        activation_186[0][0]
__________________________________________________________________________________________________
activation_188 (Activation)     (None, 8, 40)        0           dilated_conv_i1_d2[0][0]
__________________________________________________________________________________________________
add_80 (Add)                    (None, 8, 40)        0           1x1_conv_d2[0][0]
                                                                 activation_188[0][0]
__________________________________________________________________________________________________
activation_189 (Activation)     (None, 8, 40)        0           add_80[0][0]
__________________________________________________________________________________________________
dilated_conv_i0_d4 (Conv1D)     (None, 8, 40)        3240        activation_189[0][0]
__________________________________________________________________________________________________
activation_190 (Activation)     (None, 8, 40)        0           dilated_conv_i0_d4[0][0]
__________________________________________________________________________________________________
dilated_conv_i1_d4 (Conv1D)     (None, 8, 40)        3240        activation_190[0][0]
__________________________________________________________________________________________________
1x1_conv_d4 (Conv1D)            (None, 8, 40)        1640        activation_189[0][0]
__________________________________________________________________________________________________
activation_191 (Activation)     (None, 8, 40)        0           dilated_conv_i1_d4[0][0]
__________________________________________________________________________________________________
add_81 (Add)                    (None, 8, 40)        0           1x1_conv_d4[0][0]
                                                                 activation_191[0][0]
__________________________________________________________________________________________________
activation_192 (Activation)     (None, 8, 40)        0           add_81[0][0]
__________________________________________________________________________________________________
lambda_27 (Lambda)              (None, 1, 40)        0           activation_192[0][0]
__________________________________________________________________________________________________
conv1d_27 (Conv1D)              (None, 1, 1)         40          lambda_27[0][0]
==================================================================================================
Total params: 24,600
Trainable params: 24,600
Non-trainable params: 0
__________________________________________________________________________________________________
None
36/36Model: "model_28"
__________________________________________________________________________________________________
Layer (type)                    Output Shape         Param #     Connected to
==================================================================================================
input_28 (InputLayer)           (None, 8, 4)         0
__________________________________________________________________________________________________
1x1_initial_conv (Conv1D)       (None, 8, 44)        220         input_28[0][0]
__________________________________________________________________________________________________
dilated_conv_i0_d1 (Conv1D)     (None, 8, 44)        3916        1x1_initial_conv[0][0]
__________________________________________________________________________________________________
activation_193 (Activation)     (None, 8, 44)        0           dilated_conv_i0_d1[0][0]
__________________________________________________________________________________________________
dilated_conv_i1_d1 (Conv1D)     (None, 8, 44)        3916        activation_193[0][0]
__________________________________________________________________________________________________
1x1_conv_d1 (Conv1D)            (None, 8, 44)        1980        1x1_initial_conv[0][0]
__________________________________________________________________________________________________
activation_194 (Activation)     (None, 8, 44)        0           dilated_conv_i1_d1[0][0]
__________________________________________________________________________________________________
add_82 (Add)                    (None, 8, 44)        0           1x1_conv_d1[0][0]
                                                                 activation_194[0][0]
__________________________________________________________________________________________________
activation_195 (Activation)     (None, 8, 44)        0           add_82[0][0]
__________________________________________________________________________________________________
dilated_conv_i0_d2 (Conv1D)     (None, 8, 44)        3916        activation_195[0][0]
__________________________________________________________________________________________________
activation_196 (Activation)     (None, 8, 44)        0           dilated_conv_i0_d2[0][0]
__________________________________________________________________________________________________
dilated_conv_i1_d2 (Conv1D)     (None, 8, 44)        3916        activation_196[0][0]
__________________________________________________________________________________________________
1x1_conv_d2 (Conv1D)            (None, 8, 44)        1980        activation_195[0][0]
__________________________________________________________________________________________________
activation_197 (Activation)     (None, 8, 44)        0           dilated_conv_i1_d2[0][0]
__________________________________________________________________________________________________
add_83 (Add)                    (None, 8, 44)        0           1x1_conv_d2[0][0]
                                                                 activation_197[0][0]
__________________________________________________________________________________________________
activation_198 (Activation)     (None, 8, 44)        0           add_83[0][0]
__________________________________________________________________________________________________
dilated_conv_i0_d4 (Conv1D)     (None, 8, 44)        3916        activation_198[0][0]
__________________________________________________________________________________________________
activation_199 (Activation)     (None, 8, 44)        0           dilated_conv_i0_d4[0][0]
__________________________________________________________________________________________________
dilated_conv_i1_d4 (Conv1D)     (None, 8, 44)        3916        activation_199[0][0]
__________________________________________________________________________________________________
1x1_conv_d4 (Conv1D)            (None, 8, 44)        1980        activation_198[0][0]
__________________________________________________________________________________________________
activation_200 (Activation)     (None, 8, 44)        0           dilated_conv_i1_d4[0][0]
__________________________________________________________________________________________________
add_84 (Add)                    (None, 8, 44)        0           1x1_conv_d4[0][0]
                                                                 activation_200[0][0]
__________________________________________________________________________________________________
activation_201 (Activation)     (None, 8, 44)        0           add_84[0][0]
__________________________________________________________________________________________________
lambda_28 (Lambda)              (None, 1, 44)        0           activation_201[0][0]
__________________________________________________________________________________________________
conv1d_28 (Conv1D)              (None, 1, 1)         44          lambda_28[0][0]
==================================================================================================
Total params: 29,700
Trainable params: 29,700
Non-trainable params: 0
__________________________________________________________________________________________________
None
36/36Model: "model_29"
__________________________________________________________________________________________________
Layer (type)                    Output Shape         Param #     Connected to
==================================================================================================
input_29 (InputLayer)           (None, 8, 4)         0
__________________________________________________________________________________________________
1x1_initial_conv (Conv1D)       (None, 8, 48)        240         input_29[0][0]
__________________________________________________________________________________________________
dilated_conv_i0_d1 (Conv1D)     (None, 8, 48)        4656        1x1_initial_conv[0][0]
__________________________________________________________________________________________________
activation_202 (Activation)     (None, 8, 48)        0           dilated_conv_i0_d1[0][0]
__________________________________________________________________________________________________
dilated_conv_i1_d1 (Conv1D)     (None, 8, 48)        4656        activation_202[0][0]
__________________________________________________________________________________________________
1x1_conv_d1 (Conv1D)            (None, 8, 48)        2352        1x1_initial_conv[0][0]
__________________________________________________________________________________________________
activation_203 (Activation)     (None, 8, 48)        0           dilated_conv_i1_d1[0][0]
__________________________________________________________________________________________________
add_85 (Add)                    (None, 8, 48)        0           1x1_conv_d1[0][0]
                                                                 activation_203[0][0]
__________________________________________________________________________________________________
activation_204 (Activation)     (None, 8, 48)        0           add_85[0][0]
__________________________________________________________________________________________________
dilated_conv_i0_d2 (Conv1D)     (None, 8, 48)        4656        activation_204[0][0]
__________________________________________________________________________________________________
activation_205 (Activation)     (None, 8, 48)        0           dilated_conv_i0_d2[0][0]
__________________________________________________________________________________________________
dilated_conv_i1_d2 (Conv1D)     (None, 8, 48)        4656        activation_205[0][0]
__________________________________________________________________________________________________
1x1_conv_d2 (Conv1D)            (None, 8, 48)        2352        activation_204[0][0]
__________________________________________________________________________________________________
activation_206 (Activation)     (None, 8, 48)        0           dilated_conv_i1_d2[0][0]
__________________________________________________________________________________________________
add_86 (Add)                    (None, 8, 48)        0           1x1_conv_d2[0][0]
                                                                 activation_206[0][0]
__________________________________________________________________________________________________
activation_207 (Activation)     (None, 8, 48)        0           add_86[0][0]
__________________________________________________________________________________________________
dilated_conv_i0_d4 (Conv1D)     (None, 8, 48)        4656        activation_207[0][0]
__________________________________________________________________________________________________
activation_208 (Activation)     (None, 8, 48)        0           dilated_conv_i0_d4[0][0]
__________________________________________________________________________________________________
dilated_conv_i1_d4 (Conv1D)     (None, 8, 48)        4656        activation_208[0][0]
__________________________________________________________________________________________________
1x1_conv_d4 (Conv1D)            (None, 8, 48)        2352        activation_207[0][0]
__________________________________________________________________________________________________
activation_209 (Activation)     (None, 8, 48)        0           dilated_conv_i1_d4[0][0]
__________________________________________________________________________________________________
add_87 (Add)                    (None, 8, 48)        0           1x1_conv_d4[0][0]
                                                                 activation_209[0][0]
__________________________________________________________________________________________________
activation_210 (Activation)     (None, 8, 48)        0           add_87[0][0]
__________________________________________________________________________________________________
lambda_29 (Lambda)              (None, 1, 48)        0           activation_210[0][0]
__________________________________________________________________________________________________
conv1d_29 (Conv1D)              (None, 1, 1)         48          lambda_29[0][0]
==================================================================================================
Total params: 35,280
Trainable params: 35,280
Non-trainable params: 0
__________________________________________________________________________________________________
None
36/36Model: "model_30"
__________________________________________________________________________________________________
Layer (type)                    Output Shape         Param #     Connected to
==================================================================================================
input_30 (InputLayer)           (None, 8, 4)         0
__________________________________________________________________________________________________
1x1_initial_conv (Conv1D)       (None, 8, 52)        260         input_30[0][0]
__________________________________________________________________________________________________
dilated_conv_i0_d1 (Conv1D)     (None, 8, 52)        5460        1x1_initial_conv[0][0]
__________________________________________________________________________________________________
activation_211 (Activation)     (None, 8, 52)        0           dilated_conv_i0_d1[0][0]
__________________________________________________________________________________________________
dilated_conv_i1_d1 (Conv1D)     (None, 8, 52)        5460        activation_211[0][0]
__________________________________________________________________________________________________
1x1_conv_d1 (Conv1D)            (None, 8, 52)        2756        1x1_initial_conv[0][0]
__________________________________________________________________________________________________
activation_212 (Activation)     (None, 8, 52)        0           dilated_conv_i1_d1[0][0]
__________________________________________________________________________________________________
add_88 (Add)                    (None, 8, 52)        0           1x1_conv_d1[0][0]
                                                                 activation_212[0][0]
__________________________________________________________________________________________________
activation_213 (Activation)     (None, 8, 52)        0           add_88[0][0]
__________________________________________________________________________________________________
dilated_conv_i0_d2 (Conv1D)     (None, 8, 52)        5460        activation_213[0][0]
__________________________________________________________________________________________________
activation_214 (Activation)     (None, 8, 52)        0           dilated_conv_i0_d2[0][0]
__________________________________________________________________________________________________
dilated_conv_i1_d2 (Conv1D)     (None, 8, 52)        5460        activation_214[0][0]
__________________________________________________________________________________________________
1x1_conv_d2 (Conv1D)            (None, 8, 52)        2756        activation_213[0][0]
__________________________________________________________________________________________________
activation_215 (Activation)     (None, 8, 52)        0           dilated_conv_i1_d2[0][0]
__________________________________________________________________________________________________
add_89 (Add)                    (None, 8, 52)        0           1x1_conv_d2[0][0]
                                                                 activation_215[0][0]
__________________________________________________________________________________________________
activation_216 (Activation)     (None, 8, 52)        0           add_89[0][0]
__________________________________________________________________________________________________
dilated_conv_i0_d4 (Conv1D)     (None, 8, 52)        5460        activation_216[0][0]
__________________________________________________________________________________________________
activation_217 (Activation)     (None, 8, 52)        0           dilated_conv_i0_d4[0][0]
__________________________________________________________________________________________________
dilated_conv_i1_d4 (Conv1D)     (None, 8, 52)        5460        activation_217[0][0]
__________________________________________________________________________________________________
1x1_conv_d4 (Conv1D)            (None, 8, 52)        2756        activation_216[0][0]
__________________________________________________________________________________________________
activation_218 (Activation)     (None, 8, 52)        0           dilated_conv_i1_d4[0][0]
__________________________________________________________________________________________________
add_90 (Add)                    (None, 8, 52)        0           1x1_conv_d4[0][0]
                                                                 activation_218[0][0]
__________________________________________________________________________________________________
activation_219 (Activation)     (None, 8, 52)        0           add_90[0][0]
__________________________________________________________________________________________________
lambda_30 (Lambda)              (None, 1, 52)        0           activation_219[0][0]
__________________________________________________________________________________________________
conv1d_30 (Conv1D)              (None, 1, 1)         52          lambda_30[0][0]
==================================================================================================
Total params: 41,340
Trainable params: 41,340
Non-trainable params: 0
__________________________________________________________________________________________________
None
36/36Model: "model_31"
__________________________________________________________________________________________________
Layer (type)                    Output Shape         Param #     Connected to
==================================================================================================
input_31 (InputLayer)           (None, 8, 4)         0
__________________________________________________________________________________________________
1x1_initial_conv (Conv1D)       (None, 8, 56)        280         input_31[0][0]
__________________________________________________________________________________________________
dilated_conv_i0_d1 (Conv1D)     (None, 8, 56)        6328        1x1_initial_conv[0][0]
__________________________________________________________________________________________________
activation_220 (Activation)     (None, 8, 56)        0           dilated_conv_i0_d1[0][0]
__________________________________________________________________________________________________
dilated_conv_i1_d1 (Conv1D)     (None, 8, 56)        6328        activation_220[0][0]
__________________________________________________________________________________________________
1x1_conv_d1 (Conv1D)            (None, 8, 56)        3192        1x1_initial_conv[0][0]
__________________________________________________________________________________________________
activation_221 (Activation)     (None, 8, 56)        0           dilated_conv_i1_d1[0][0]
__________________________________________________________________________________________________
add_91 (Add)                    (None, 8, 56)        0           1x1_conv_d1[0][0]
                                                                 activation_221[0][0]
__________________________________________________________________________________________________
activation_222 (Activation)     (None, 8, 56)        0           add_91[0][0]
__________________________________________________________________________________________________
dilated_conv_i0_d2 (Conv1D)     (None, 8, 56)        6328        activation_222[0][0]
__________________________________________________________________________________________________
activation_223 (Activation)     (None, 8, 56)        0           dilated_conv_i0_d2[0][0]
__________________________________________________________________________________________________
dilated_conv_i1_d2 (Conv1D)     (None, 8, 56)        6328        activation_223[0][0]
__________________________________________________________________________________________________
1x1_conv_d2 (Conv1D)            (None, 8, 56)        3192        activation_222[0][0]
__________________________________________________________________________________________________
activation_224 (Activation)     (None, 8, 56)        0           dilated_conv_i1_d2[0][0]
__________________________________________________________________________________________________
add_92 (Add)                    (None, 8, 56)        0           1x1_conv_d2[0][0]
                                                                 activation_224[0][0]
__________________________________________________________________________________________________
activation_225 (Activation)     (None, 8, 56)        0           add_92[0][0]
__________________________________________________________________________________________________
dilated_conv_i0_d4 (Conv1D)     (None, 8, 56)        6328        activation_225[0][0]
__________________________________________________________________________________________________
activation_226 (Activation)     (None, 8, 56)        0           dilated_conv_i0_d4[0][0]
__________________________________________________________________________________________________
dilated_conv_i1_d4 (Conv1D)     (None, 8, 56)        6328        activation_226[0][0]
__________________________________________________________________________________________________
1x1_conv_d4 (Conv1D)            (None, 8, 56)        3192        activation_225[0][0]
__________________________________________________________________________________________________
activation_227 (Activation)     (None, 8, 56)        0           dilated_conv_i1_d4[0][0]
__________________________________________________________________________________________________
add_93 (Add)                    (None, 8, 56)        0           1x1_conv_d4[0][0]
                                                                 activation_227[0][0]
__________________________________________________________________________________________________
activation_228 (Activation)     (None, 8, 56)        0           add_93[0][0]
__________________________________________________________________________________________________
lambda_31 (Lambda)              (None, 1, 56)        0           activation_228[0][0]
__________________________________________________________________________________________________
conv1d_31 (Conv1D)              (None, 1, 1)         56          lambda_31[0][0]
==================================================================================================
Total params: 47,880
Trainable params: 47,880
Non-trainable params: 0
__________________________________________________________________________________________________
None
36/36Model: "model_32"
__________________________________________________________________________________________________
Layer (type)                    Output Shape         Param #     Connected to
==================================================================================================
input_32 (InputLayer)           (None, 8, 4)         0
__________________________________________________________________________________________________
1x1_initial_conv (Conv1D)       (None, 8, 60)        300         input_32[0][0]
__________________________________________________________________________________________________
dilated_conv_i0_d1 (Conv1D)     (None, 8, 60)        7260        1x1_initial_conv[0][0]
__________________________________________________________________________________________________
activation_229 (Activation)     (None, 8, 60)        0           dilated_conv_i0_d1[0][0]
__________________________________________________________________________________________________
dilated_conv_i1_d1 (Conv1D)     (None, 8, 60)        7260        activation_229[0][0]
__________________________________________________________________________________________________
1x1_conv_d1 (Conv1D)            (None, 8, 60)        3660        1x1_initial_conv[0][0]
__________________________________________________________________________________________________
activation_230 (Activation)     (None, 8, 60)        0           dilated_conv_i1_d1[0][0]
__________________________________________________________________________________________________
add_94 (Add)                    (None, 8, 60)        0           1x1_conv_d1[0][0]
                                                                 activation_230[0][0]
__________________________________________________________________________________________________
activation_231 (Activation)     (None, 8, 60)        0           add_94[0][0]
__________________________________________________________________________________________________
dilated_conv_i0_d2 (Conv1D)     (None, 8, 60)        7260        activation_231[0][0]
__________________________________________________________________________________________________
activation_232 (Activation)     (None, 8, 60)        0           dilated_conv_i0_d2[0][0]
__________________________________________________________________________________________________
dilated_conv_i1_d2 (Conv1D)     (None, 8, 60)        7260        activation_232[0][0]
__________________________________________________________________________________________________
1x1_conv_d2 (Conv1D)            (None, 8, 60)        3660        activation_231[0][0]
__________________________________________________________________________________________________
activation_233 (Activation)     (None, 8, 60)        0           dilated_conv_i1_d2[0][0]
__________________________________________________________________________________________________
add_95 (Add)                    (None, 8, 60)        0           1x1_conv_d2[0][0]
                                                                 activation_233[0][0]
__________________________________________________________________________________________________
activation_234 (Activation)     (None, 8, 60)        0           add_95[0][0]
__________________________________________________________________________________________________
dilated_conv_i0_d4 (Conv1D)     (None, 8, 60)        7260        activation_234[0][0]
__________________________________________________________________________________________________
activation_235 (Activation)     (None, 8, 60)        0           dilated_conv_i0_d4[0][0]
__________________________________________________________________________________________________
dilated_conv_i1_d4 (Conv1D)     (None, 8, 60)        7260        activation_235[0][0]
__________________________________________________________________________________________________
1x1_conv_d4 (Conv1D)            (None, 8, 60)        3660        activation_234[0][0]
__________________________________________________________________________________________________
activation_236 (Activation)     (None, 8, 60)        0           dilated_conv_i1_d4[0][0]
__________________________________________________________________________________________________
add_96 (Add)                    (None, 8, 60)        0           1x1_conv_d4[0][0]
                                                                 activation_236[0][0]
__________________________________________________________________________________________________
activation_237 (Activation)     (None, 8, 60)        0           add_96[0][0]
__________________________________________________________________________________________________
lambda_32 (Lambda)              (None, 1, 60)        0           activation_237[0][0]
__________________________________________________________________________________________________
conv1d_32 (Conv1D)              (None, 1, 1)         60          lambda_32[0][0]
==================================================================================================
Total params: 54,900
Trainable params: 54,900
Non-trainable params: 0
__________________________________________________________________________________________________
None
36/36Model: "model_33"
__________________________________________________________________________________________________
Layer (type)                    Output Shape         Param #     Connected to
==================================================================================================
input_33 (InputLayer)           (None, 8, 4)         0
__________________________________________________________________________________________________
1x1_initial_conv (Conv1D)       (None, 8, 64)        320         input_33[0][0]
__________________________________________________________________________________________________
dilated_conv_i0_d1 (Conv1D)     (None, 8, 64)        8256        1x1_initial_conv[0][0]
__________________________________________________________________________________________________
activation_238 (Activation)     (None, 8, 64)        0           dilated_conv_i0_d1[0][0]
__________________________________________________________________________________________________
dilated_conv_i1_d1 (Conv1D)     (None, 8, 64)        8256        activation_238[0][0]
__________________________________________________________________________________________________
1x1_conv_d1 (Conv1D)            (None, 8, 64)        4160        1x1_initial_conv[0][0]
__________________________________________________________________________________________________
activation_239 (Activation)     (None, 8, 64)        0           dilated_conv_i1_d1[0][0]
__________________________________________________________________________________________________
add_97 (Add)                    (None, 8, 64)        0           1x1_conv_d1[0][0]
                                                                 activation_239[0][0]
__________________________________________________________________________________________________
activation_240 (Activation)     (None, 8, 64)        0           add_97[0][0]
__________________________________________________________________________________________________
dilated_conv_i0_d2 (Conv1D)     (None, 8, 64)        8256        activation_240[0][0]
__________________________________________________________________________________________________
activation_241 (Activation)     (None, 8, 64)        0           dilated_conv_i0_d2[0][0]
__________________________________________________________________________________________________
dilated_conv_i1_d2 (Conv1D)     (None, 8, 64)        8256        activation_241[0][0]
__________________________________________________________________________________________________
1x1_conv_d2 (Conv1D)            (None, 8, 64)        4160        activation_240[0][0]
__________________________________________________________________________________________________
activation_242 (Activation)     (None, 8, 64)        0           dilated_conv_i1_d2[0][0]
__________________________________________________________________________________________________
add_98 (Add)                    (None, 8, 64)        0           1x1_conv_d2[0][0]
                                                                 activation_242[0][0]
__________________________________________________________________________________________________
activation_243 (Activation)     (None, 8, 64)        0           add_98[0][0]
__________________________________________________________________________________________________
dilated_conv_i0_d4 (Conv1D)     (None, 8, 64)        8256        activation_243[0][0]
__________________________________________________________________________________________________
activation_244 (Activation)     (None, 8, 64)        0           dilated_conv_i0_d4[0][0]
__________________________________________________________________________________________________
dilated_conv_i1_d4 (Conv1D)     (None, 8, 64)        8256        activation_244[0][0]
__________________________________________________________________________________________________
1x1_conv_d4 (Conv1D)            (None, 8, 64)        4160        activation_243[0][0]
__________________________________________________________________________________________________
activation_245 (Activation)     (None, 8, 64)        0           dilated_conv_i1_d4[0][0]
__________________________________________________________________________________________________
add_99 (Add)                    (None, 8, 64)        0           1x1_conv_d4[0][0]
                                                                 activation_245[0][0]
__________________________________________________________________________________________________
activation_246 (Activation)     (None, 8, 64)        0           add_99[0][0]
__________________________________________________________________________________________________
lambda_33 (Lambda)              (None, 1, 64)        0           activation_246[0][0]
__________________________________________________________________________________________________
conv1d_33 (Conv1D)              (None, 1, 1)         64          lambda_33[0][0]
==================================================================================================
Total params: 62,400
Trainable params: 62,400
Non-trainable params: 0
__________________________________________________________________________________________________
None
36/36Model: "model_34"
__________________________________________________________________________________________________
Layer (type)                    Output Shape         Param #     Connected to
==================================================================================================
input_34 (InputLayer)           (None, 8, 4)         0
__________________________________________________________________________________________________
1x1_initial_conv (Conv1D)       (None, 8, 68)        340         input_34[0][0]
__________________________________________________________________________________________________
dilated_conv_i0_d1 (Conv1D)     (None, 8, 68)        9316        1x1_initial_conv[0][0]
__________________________________________________________________________________________________
activation_247 (Activation)     (None, 8, 68)        0           dilated_conv_i0_d1[0][0]
__________________________________________________________________________________________________
dilated_conv_i1_d1 (Conv1D)     (None, 8, 68)        9316        activation_247[0][0]
__________________________________________________________________________________________________
1x1_conv_d1 (Conv1D)            (None, 8, 68)        4692        1x1_initial_conv[0][0]
__________________________________________________________________________________________________
activation_248 (Activation)     (None, 8, 68)        0           dilated_conv_i1_d1[0][0]
__________________________________________________________________________________________________
add_100 (Add)                   (None, 8, 68)        0           1x1_conv_d1[0][0]
                                                                 activation_248[0][0]
__________________________________________________________________________________________________
activation_249 (Activation)     (None, 8, 68)        0           add_100[0][0]
__________________________________________________________________________________________________
dilated_conv_i0_d2 (Conv1D)     (None, 8, 68)        9316        activation_249[0][0]
__________________________________________________________________________________________________
activation_250 (Activation)     (None, 8, 68)        0           dilated_conv_i0_d2[0][0]
__________________________________________________________________________________________________
dilated_conv_i1_d2 (Conv1D)     (None, 8, 68)        9316        activation_250[0][0]
__________________________________________________________________________________________________
1x1_conv_d2 (Conv1D)            (None, 8, 68)        4692        activation_249[0][0]
__________________________________________________________________________________________________
activation_251 (Activation)     (None, 8, 68)        0           dilated_conv_i1_d2[0][0]
__________________________________________________________________________________________________
add_101 (Add)                   (None, 8, 68)        0           1x1_conv_d2[0][0]
                                                                 activation_251[0][0]
__________________________________________________________________________________________________
activation_252 (Activation)     (None, 8, 68)        0           add_101[0][0]
__________________________________________________________________________________________________
dilated_conv_i0_d4 (Conv1D)     (None, 8, 68)        9316        activation_252[0][0]
__________________________________________________________________________________________________
activation_253 (Activation)     (None, 8, 68)        0           dilated_conv_i0_d4[0][0]
__________________________________________________________________________________________________
dilated_conv_i1_d4 (Conv1D)     (None, 8, 68)        9316        activation_253[0][0]
__________________________________________________________________________________________________
1x1_conv_d4 (Conv1D)            (None, 8, 68)        4692        activation_252[0][0]
__________________________________________________________________________________________________
activation_254 (Activation)     (None, 8, 68)        0           dilated_conv_i1_d4[0][0]
__________________________________________________________________________________________________
add_102 (Add)                   (None, 8, 68)        0           1x1_conv_d4[0][0]
                                                                 activation_254[0][0]
__________________________________________________________________________________________________
activation_255 (Activation)     (None, 8, 68)        0           add_102[0][0]
__________________________________________________________________________________________________
lambda_34 (Lambda)              (None, 1, 68)        0           activation_255[0][0]
__________________________________________________________________________________________________
conv1d_34 (Conv1D)              (None, 1, 1)         68          lambda_34[0][0]
==================================================================================================
Total params: 70,380
Trainable params: 70,380
Non-trainable params: 0
__________________________________________________________________________________________________
None
36/36
