…
se": 0.06889413006448476}, "64": {"loss": 0.004542686937558179, "srocc": 0.7215745808273959, "lcc": 0.7815252418111821, "rmse": 0.06467497585015457}, "68": {"loss": 0.005223160268255717, "srocc": 0.6709545138803107, "lcc": 0.7423213646672906, "rmse": 0.06935551157479986}}


Model: "model_1"
__________________________________________________________________________________________________
Layer (type)                    Output Shape         Param #     Connected to
==================================================================================================
input_1 (InputLayer)            (None, 8, 4)         0
__________________________________________________________________________________________________
1x1_initial_conv (Conv1D)       (None, 8, 4)         20          input_1[0][0]
__________________________________________________________________________________________________
dilated_conv_i0_d1 (Conv1D)     (None, 8, 4)         36          1x1_initial_conv[0][0]
__________________________________________________________________________________________________
1x1_conv_d1 (Conv1D)            (None, 8, 4)         20          1x1_initial_conv[0][0]
__________________________________________________________________________________________________
activation_1 (Activation)       (None, 8, 4)         0           dilated_conv_i0_d1[0][0]
__________________________________________________________________________________________________
add_1 (Add)                     (None, 8, 4)         0           1x1_conv_d1[0][0]
                                                                 activation_1[0][0]
__________________________________________________________________________________________________
activation_2 (Activation)       (None, 8, 4)         0           add_1[0][0]
__________________________________________________________________________________________________
dilated_conv_i0_d2 (Conv1D)     (None, 8, 4)         36          activation_2[0][0]
__________________________________________________________________________________________________
1x1_conv_d2 (Conv1D)            (None, 8, 4)         20          activation_2[0][0]
__________________________________________________________________________________________________
activation_3 (Activation)       (None, 8, 4)         0           dilated_conv_i0_d2[0][0]
__________________________________________________________________________________________________
add_2 (Add)                     (None, 8, 4)         0           1x1_conv_d2[0][0]
                                                                 activation_3[0][0]
__________________________________________________________________________________________________
activation_4 (Activation)       (None, 8, 4)         0           add_2[0][0]
__________________________________________________________________________________________________
dilated_conv_i0_d4 (Conv1D)     (None, 8, 4)         36          activation_4[0][0]
__________________________________________________________________________________________________
1x1_conv_d4 (Conv1D)            (None, 8, 4)         20          activation_4[0][0]
__________________________________________________________________________________________________
activation_5 (Activation)       (None, 8, 4)         0           dilated_conv_i0_d4[0][0]
__________________________________________________________________________________________________
add_3 (Add)                     (None, 8, 4)         0           1x1_conv_d4[0][0]
                                                                 activation_5[0][0]
__________________________________________________________________________________________________
activation_6 (Activation)       (None, 8, 4)         0           add_3[0][0]
__________________________________________________________________________________________________
lambda_1 (Lambda)               (None, 1, 4)         0           activation_6[0][0]
__________________________________________________________________________________________________
conv1d_1 (Conv1D)               (None, 1, 1)         4           lambda_1[0][0]
==================================================================================================
Total params: 192
Trainable params: 192
Non-trainable params: 0
__________________________________________________________________________________________________
None
36/36
Model: "model_2"
__________________________________________________________________________________________________
Layer (type)                    Output Shape         Param #     Connected to
==================================================================================================
input_2 (InputLayer)            (None, 8, 4)         0
__________________________________________________________________________________________________
1x1_initial_conv (Conv1D)       (None, 8, 8)         40          input_2[0][0]
__________________________________________________________________________________________________
dilated_conv_i0_d1 (Conv1D)     (None, 8, 8)         136         1x1_initial_conv[0][0]
__________________________________________________________________________________________________
1x1_conv_d1 (Conv1D)            (None, 8, 8)         72          1x1_initial_conv[0][0]
__________________________________________________________________________________________________
activation_7 (Activation)       (None, 8, 8)         0           dilated_conv_i0_d1[0][0]
__________________________________________________________________________________________________
add_4 (Add)                     (None, 8, 8)         0           1x1_conv_d1[0][0]
                                                                 activation_7[0][0]
__________________________________________________________________________________________________
activation_8 (Activation)       (None, 8, 8)         0           add_4[0][0]
__________________________________________________________________________________________________
dilated_conv_i0_d2 (Conv1D)     (None, 8, 8)         136         activation_8[0][0]
__________________________________________________________________________________________________
1x1_conv_d2 (Conv1D)            (None, 8, 8)         72          activation_8[0][0]
__________________________________________________________________________________________________
activation_9 (Activation)       (None, 8, 8)         0           dilated_conv_i0_d2[0][0]
__________________________________________________________________________________________________
add_5 (Add)                     (None, 8, 8)         0           1x1_conv_d2[0][0]
                                                                 activation_9[0][0]
__________________________________________________________________________________________________
activation_10 (Activation)      (None, 8, 8)         0           add_5[0][0]
__________________________________________________________________________________________________
dilated_conv_i0_d4 (Conv1D)     (None, 8, 8)         136         activation_10[0][0]
__________________________________________________________________________________________________
1x1_conv_d4 (Conv1D)            (None, 8, 8)         72          activation_10[0][0]
__________________________________________________________________________________________________
activation_11 (Activation)      (None, 8, 8)         0           dilated_conv_i0_d4[0][0]
__________________________________________________________________________________________________
add_6 (Add)                     (None, 8, 8)         0           1x1_conv_d4[0][0]
                                                                 activation_11[0][0]
__________________________________________________________________________________________________
activation_12 (Activation)      (None, 8, 8)         0           add_6[0][0]
__________________________________________________________________________________________________
lambda_2 (Lambda)               (None, 1, 8)         0           activation_12[0][0]
__________________________________________________________________________________________________
conv1d_2 (Conv1D)               (None, 1, 1)         8           lambda_2[0][0]
==================================================================================================
Total params: 672
Trainable params: 672
Non-trainable params: 0
__________________________________________________________________________________________________
None
36/36Model: "model_3"
__________________________________________________________________________________________________
Layer (type)                    Output Shape         Param #     Connected to
==================================================================================================
input_3 (InputLayer)            (None, 8, 4)         0
__________________________________________________________________________________________________
1x1_initial_conv (Conv1D)       (None, 8, 12)        60          input_3[0][0]
__________________________________________________________________________________________________
dilated_conv_i0_d1 (Conv1D)     (None, 8, 12)        300         1x1_initial_conv[0][0]
__________________________________________________________________________________________________
1x1_conv_d1 (Conv1D)            (None, 8, 12)        156         1x1_initial_conv[0][0]
__________________________________________________________________________________________________
activation_13 (Activation)      (None, 8, 12)        0           dilated_conv_i0_d1[0][0]
__________________________________________________________________________________________________
add_7 (Add)                     (None, 8, 12)        0           1x1_conv_d1[0][0]
                                                                 activation_13[0][0]
__________________________________________________________________________________________________
activation_14 (Activation)      (None, 8, 12)        0           add_7[0][0]
__________________________________________________________________________________________________
dilated_conv_i0_d2 (Conv1D)     (None, 8, 12)        300         activation_14[0][0]
__________________________________________________________________________________________________
1x1_conv_d2 (Conv1D)            (None, 8, 12)        156         activation_14[0][0]
__________________________________________________________________________________________________
activation_15 (Activation)      (None, 8, 12)        0           dilated_conv_i0_d2[0][0]
__________________________________________________________________________________________________
add_8 (Add)                     (None, 8, 12)        0           1x1_conv_d2[0][0]
                                                                 activation_15[0][0]
__________________________________________________________________________________________________
activation_16 (Activation)      (None, 8, 12)        0           add_8[0][0]
__________________________________________________________________________________________________
dilated_conv_i0_d4 (Conv1D)     (None, 8, 12)        300         activation_16[0][0]
__________________________________________________________________________________________________
1x1_conv_d4 (Conv1D)            (None, 8, 12)        156         activation_16[0][0]
__________________________________________________________________________________________________
activation_17 (Activation)      (None, 8, 12)        0           dilated_conv_i0_d4[0][0]
__________________________________________________________________________________________________
add_9 (Add)                     (None, 8, 12)        0           1x1_conv_d4[0][0]
                                                                 activation_17[0][0]
__________________________________________________________________________________________________
activation_18 (Activation)      (None, 8, 12)        0           add_9[0][0]
__________________________________________________________________________________________________
lambda_3 (Lambda)               (None, 1, 12)        0           activation_18[0][0]
__________________________________________________________________________________________________
conv1d_3 (Conv1D)               (None, 1, 1)         12          lambda_3[0][0]
==================================================================================================
Total params: 1,440
Trainable params: 1,440
Non-trainable params: 0
__________________________________________________________________________________________________
None
36/36Model: "model_4"
__________________________________________________________________________________________________
Layer (type)                    Output Shape         Param #     Connected to
==================================================================================================
input_4 (InputLayer)            (None, 8, 4)         0
__________________________________________________________________________________________________
1x1_initial_conv (Conv1D)       (None, 8, 16)        80          input_4[0][0]
__________________________________________________________________________________________________
dilated_conv_i0_d1 (Conv1D)     (None, 8, 16)        528         1x1_initial_conv[0][0]
__________________________________________________________________________________________________
1x1_conv_d1 (Conv1D)            (None, 8, 16)        272         1x1_initial_conv[0][0]
__________________________________________________________________________________________________
activation_19 (Activation)      (None, 8, 16)        0           dilated_conv_i0_d1[0][0]
__________________________________________________________________________________________________
add_10 (Add)                    (None, 8, 16)        0           1x1_conv_d1[0][0]
                                                                 activation_19[0][0]
__________________________________________________________________________________________________
activation_20 (Activation)      (None, 8, 16)        0           add_10[0][0]
__________________________________________________________________________________________________
dilated_conv_i0_d2 (Conv1D)     (None, 8, 16)        528         activation_20[0][0]
__________________________________________________________________________________________________
1x1_conv_d2 (Conv1D)            (None, 8, 16)        272         activation_20[0][0]
__________________________________________________________________________________________________
activation_21 (Activation)      (None, 8, 16)        0           dilated_conv_i0_d2[0][0]
__________________________________________________________________________________________________
add_11 (Add)                    (None, 8, 16)        0           1x1_conv_d2[0][0]
                                                                 activation_21[0][0]
__________________________________________________________________________________________________
activation_22 (Activation)      (None, 8, 16)        0           add_11[0][0]
__________________________________________________________________________________________________
dilated_conv_i0_d4 (Conv1D)     (None, 8, 16)        528         activation_22[0][0]
__________________________________________________________________________________________________
1x1_conv_d4 (Conv1D)            (None, 8, 16)        272         activation_22[0][0]
__________________________________________________________________________________________________
activation_23 (Activation)      (None, 8, 16)        0           dilated_conv_i0_d4[0][0]
__________________________________________________________________________________________________
add_12 (Add)                    (None, 8, 16)        0           1x1_conv_d4[0][0]
                                                                 activation_23[0][0]
__________________________________________________________________________________________________
activation_24 (Activation)      (None, 8, 16)        0           add_12[0][0]
__________________________________________________________________________________________________
lambda_4 (Lambda)               (None, 1, 16)        0           activation_24[0][0]
__________________________________________________________________________________________________
conv1d_4 (Conv1D)               (None, 1, 1)         16          lambda_4[0][0]
==================================================================================================
Total params: 2,496
Trainable params: 2,496
Non-trainable params: 0
__________________________________________________________________________________________________
None
36/36Model: "model_5"
__________________________________________________________________________________________________
Layer (type)                    Output Shape         Param #     Connected to
==================================================================================================
input_5 (InputLayer)            (None, 8, 4)         0
__________________________________________________________________________________________________
1x1_initial_conv (Conv1D)       (None, 8, 20)        100         input_5[0][0]
__________________________________________________________________________________________________
dilated_conv_i0_d1 (Conv1D)     (None, 8, 20)        820         1x1_initial_conv[0][0]
__________________________________________________________________________________________________
1x1_conv_d1 (Conv1D)            (None, 8, 20)        420         1x1_initial_conv[0][0]
__________________________________________________________________________________________________
activation_25 (Activation)      (None, 8, 20)        0           dilated_conv_i0_d1[0][0]
__________________________________________________________________________________________________
add_13 (Add)                    (None, 8, 20)        0           1x1_conv_d1[0][0]
                                                                 activation_25[0][0]
__________________________________________________________________________________________________
activation_26 (Activation)      (None, 8, 20)        0           add_13[0][0]
__________________________________________________________________________________________________
dilated_conv_i0_d2 (Conv1D)     (None, 8, 20)        820         activation_26[0][0]
__________________________________________________________________________________________________
1x1_conv_d2 (Conv1D)            (None, 8, 20)        420         activation_26[0][0]
__________________________________________________________________________________________________
activation_27 (Activation)      (None, 8, 20)        0           dilated_conv_i0_d2[0][0]
__________________________________________________________________________________________________
add_14 (Add)                    (None, 8, 20)        0           1x1_conv_d2[0][0]
                                                                 activation_27[0][0]
__________________________________________________________________________________________________
activation_28 (Activation)      (None, 8, 20)        0           add_14[0][0]
__________________________________________________________________________________________________
dilated_conv_i0_d4 (Conv1D)     (None, 8, 20)        820         activation_28[0][0]
__________________________________________________________________________________________________
1x1_conv_d4 (Conv1D)            (None, 8, 20)        420         activation_28[0][0]
__________________________________________________________________________________________________
activation_29 (Activation)      (None, 8, 20)        0           dilated_conv_i0_d4[0][0]
__________________________________________________________________________________________________
add_15 (Add)                    (None, 8, 20)        0           1x1_conv_d4[0][0]
                                                                 activation_29[0][0]
__________________________________________________________________________________________________
activation_30 (Activation)      (None, 8, 20)        0           add_15[0][0]
__________________________________________________________________________________________________
lambda_5 (Lambda)               (None, 1, 20)        0           activation_30[0][0]
__________________________________________________________________________________________________
conv1d_5 (Conv1D)               (None, 1, 1)         20          lambda_5[0][0]
==================================================================================================
Total params: 3,840
Trainable params: 3,840
Non-trainable params: 0
__________________________________________________________________________________________________
None
36/36Model: "model_6"
__________________________________________________________________________________________________
Layer (type)                    Output Shape         Param #     Connected to
==================================================================================================
input_6 (InputLayer)            (None, 8, 4)         0
__________________________________________________________________________________________________
1x1_initial_conv (Conv1D)       (None, 8, 24)        120         input_6[0][0]
__________________________________________________________________________________________________
dilated_conv_i0_d1 (Conv1D)     (None, 8, 24)        1176        1x1_initial_conv[0][0]
__________________________________________________________________________________________________
1x1_conv_d1 (Conv1D)            (None, 8, 24)        600         1x1_initial_conv[0][0]
__________________________________________________________________________________________________
activation_31 (Activation)      (None, 8, 24)        0           dilated_conv_i0_d1[0][0]
__________________________________________________________________________________________________
add_16 (Add)                    (None, 8, 24)        0           1x1_conv_d1[0][0]
                                                                 activation_31[0][0]
__________________________________________________________________________________________________
activation_32 (Activation)      (None, 8, 24)        0           add_16[0][0]
__________________________________________________________________________________________________
dilated_conv_i0_d2 (Conv1D)     (None, 8, 24)        1176        activation_32[0][0]
__________________________________________________________________________________________________
1x1_conv_d2 (Conv1D)            (None, 8, 24)        600         activation_32[0][0]
__________________________________________________________________________________________________
activation_33 (Activation)      (None, 8, 24)        0           dilated_conv_i0_d2[0][0]
__________________________________________________________________________________________________
add_17 (Add)                    (None, 8, 24)        0           1x1_conv_d2[0][0]
                                                                 activation_33[0][0]
__________________________________________________________________________________________________
activation_34 (Activation)      (None, 8, 24)        0           add_17[0][0]
__________________________________________________________________________________________________
dilated_conv_i0_d4 (Conv1D)     (None, 8, 24)        1176        activation_34[0][0]
__________________________________________________________________________________________________
1x1_conv_d4 (Conv1D)            (None, 8, 24)        600         activation_34[0][0]
__________________________________________________________________________________________________
activation_35 (Activation)      (None, 8, 24)        0           dilated_conv_i0_d4[0][0]
__________________________________________________________________________________________________
add_18 (Add)                    (None, 8, 24)        0           1x1_conv_d4[0][0]
                                                                 activation_35[0][0]
__________________________________________________________________________________________________
activation_36 (Activation)      (None, 8, 24)        0           add_18[0][0]
__________________________________________________________________________________________________
lambda_6 (Lambda)               (None, 1, 24)        0           activation_36[0][0]
__________________________________________________________________________________________________
conv1d_6 (Conv1D)               (None, 1, 1)         24          lambda_6[0][0]
==================================================================================================
Total params: 5,472
Trainable params: 5,472
Non-trainable params: 0
__________________________________________________________________________________________________
None
36/36Model: "model_7"
__________________________________________________________________________________________________
Layer (type)                    Output Shape         Param #     Connected to
==================================================================================================
input_7 (InputLayer)            (None, 8, 4)         0
__________________________________________________________________________________________________
1x1_initial_conv (Conv1D)       (None, 8, 28)        140         input_7[0][0]
__________________________________________________________________________________________________
dilated_conv_i0_d1 (Conv1D)     (None, 8, 28)        1596        1x1_initial_conv[0][0]
__________________________________________________________________________________________________
1x1_conv_d1 (Conv1D)            (None, 8, 28)        812         1x1_initial_conv[0][0]
__________________________________________________________________________________________________
activation_37 (Activation)      (None, 8, 28)        0           dilated_conv_i0_d1[0][0]
__________________________________________________________________________________________________
add_19 (Add)                    (None, 8, 28)        0           1x1_conv_d1[0][0]
                                                                 activation_37[0][0]
__________________________________________________________________________________________________
activation_38 (Activation)      (None, 8, 28)        0           add_19[0][0]
__________________________________________________________________________________________________
dilated_conv_i0_d2 (Conv1D)     (None, 8, 28)        1596        activation_38[0][0]
__________________________________________________________________________________________________
1x1_conv_d2 (Conv1D)            (None, 8, 28)        812         activation_38[0][0]
__________________________________________________________________________________________________
activation_39 (Activation)      (None, 8, 28)        0           dilated_conv_i0_d2[0][0]
__________________________________________________________________________________________________
add_20 (Add)                    (None, 8, 28)        0           1x1_conv_d2[0][0]
                                                                 activation_39[0][0]
__________________________________________________________________________________________________
activation_40 (Activation)      (None, 8, 28)        0           add_20[0][0]
__________________________________________________________________________________________________
dilated_conv_i0_d4 (Conv1D)     (None, 8, 28)        1596        activation_40[0][0]
__________________________________________________________________________________________________
1x1_conv_d4 (Conv1D)            (None, 8, 28)        812         activation_40[0][0]
__________________________________________________________________________________________________
activation_41 (Activation)      (None, 8, 28)        0           dilated_conv_i0_d4[0][0]
__________________________________________________________________________________________________
add_21 (Add)                    (None, 8, 28)        0           1x1_conv_d4[0][0]
                                                                 activation_41[0][0]
__________________________________________________________________________________________________
activation_42 (Activation)      (None, 8, 28)        0           add_21[0][0]
__________________________________________________________________________________________________
lambda_7 (Lambda)               (None, 1, 28)        0           activation_42[0][0]
__________________________________________________________________________________________________
conv1d_7 (Conv1D)               (None, 1, 1)         28          lambda_7[0][0]
==================================================================================================
Total params: 7,392
Trainable params: 7,392
Non-trainable params: 0
__________________________________________________________________________________________________
None
36/36Model: "model_8"
__________________________________________________________________________________________________
Layer (type)                    Output Shape         Param #     Connected to
==================================================================================================
input_8 (InputLayer)            (None, 8, 4)         0
__________________________________________________________________________________________________
1x1_initial_conv (Conv1D)       (None, 8, 32)        160         input_8[0][0]
__________________________________________________________________________________________________
dilated_conv_i0_d1 (Conv1D)     (None, 8, 32)        2080        1x1_initial_conv[0][0]
__________________________________________________________________________________________________
1x1_conv_d1 (Conv1D)            (None, 8, 32)        1056        1x1_initial_conv[0][0]
__________________________________________________________________________________________________
activation_43 (Activation)      (None, 8, 32)        0           dilated_conv_i0_d1[0][0]
__________________________________________________________________________________________________
add_22 (Add)                    (None, 8, 32)        0           1x1_conv_d1[0][0]
                                                                 activation_43[0][0]
__________________________________________________________________________________________________
activation_44 (Activation)      (None, 8, 32)        0           add_22[0][0]
__________________________________________________________________________________________________
dilated_conv_i0_d2 (Conv1D)     (None, 8, 32)        2080        activation_44[0][0]
__________________________________________________________________________________________________
1x1_conv_d2 (Conv1D)            (None, 8, 32)        1056        activation_44[0][0]
__________________________________________________________________________________________________
activation_45 (Activation)      (None, 8, 32)        0           dilated_conv_i0_d2[0][0]
__________________________________________________________________________________________________
add_23 (Add)                    (None, 8, 32)        0           1x1_conv_d2[0][0]
                                                                 activation_45[0][0]
__________________________________________________________________________________________________
activation_46 (Activation)      (None, 8, 32)        0           add_23[0][0]
__________________________________________________________________________________________________
dilated_conv_i0_d4 (Conv1D)     (None, 8, 32)        2080        activation_46[0][0]
__________________________________________________________________________________________________
1x1_conv_d4 (Conv1D)            (None, 8, 32)        1056        activation_46[0][0]
__________________________________________________________________________________________________
activation_47 (Activation)      (None, 8, 32)        0           dilated_conv_i0_d4[0][0]
__________________________________________________________________________________________________
add_24 (Add)                    (None, 8, 32)        0           1x1_conv_d4[0][0]
                                                                 activation_47[0][0]
__________________________________________________________________________________________________
activation_48 (Activation)      (None, 8, 32)        0           add_24[0][0]
__________________________________________________________________________________________________
lambda_8 (Lambda)               (None, 1, 32)        0           activation_48[0][0]
__________________________________________________________________________________________________
conv1d_8 (Conv1D)               (None, 1, 1)         32          lambda_8[0][0]
==================================================================================================
Total params: 9,600
Trainable params: 9,600
Non-trainable params: 0
__________________________________________________________________________________________________
None
36/36Model: "model_9"
__________________________________________________________________________________________________
Layer (type)                    Output Shape         Param #     Connected to
==================================================================================================
input_9 (InputLayer)            (None, 8, 4)         0
__________________________________________________________________________________________________
1x1_initial_conv (Conv1D)       (None, 8, 36)        180         input_9[0][0]
__________________________________________________________________________________________________
dilated_conv_i0_d1 (Conv1D)     (None, 8, 36)        2628        1x1_initial_conv[0][0]
__________________________________________________________________________________________________
1x1_conv_d1 (Conv1D)            (None, 8, 36)        1332        1x1_initial_conv[0][0]
__________________________________________________________________________________________________
activation_49 (Activation)      (None, 8, 36)        0           dilated_conv_i0_d1[0][0]
__________________________________________________________________________________________________
add_25 (Add)                    (None, 8, 36)        0           1x1_conv_d1[0][0]
                                                                 activation_49[0][0]
__________________________________________________________________________________________________
activation_50 (Activation)      (None, 8, 36)        0           add_25[0][0]
__________________________________________________________________________________________________
dilated_conv_i0_d2 (Conv1D)     (None, 8, 36)        2628        activation_50[0][0]
__________________________________________________________________________________________________
1x1_conv_d2 (Conv1D)            (None, 8, 36)        1332        activation_50[0][0]
__________________________________________________________________________________________________
activation_51 (Activation)      (None, 8, 36)        0           dilated_conv_i0_d2[0][0]
__________________________________________________________________________________________________
add_26 (Add)                    (None, 8, 36)        0           1x1_conv_d2[0][0]
                                                                 activation_51[0][0]
__________________________________________________________________________________________________
activation_52 (Activation)      (None, 8, 36)        0           add_26[0][0]
__________________________________________________________________________________________________
dilated_conv_i0_d4 (Conv1D)     (None, 8, 36)        2628        activation_52[0][0]
__________________________________________________________________________________________________
1x1_conv_d4 (Conv1D)            (None, 8, 36)        1332        activation_52[0][0]
__________________________________________________________________________________________________
activation_53 (Activation)      (None, 8, 36)        0           dilated_conv_i0_d4[0][0]
__________________________________________________________________________________________________
add_27 (Add)                    (None, 8, 36)        0           1x1_conv_d4[0][0]
                                                                 activation_53[0][0]
__________________________________________________________________________________________________
activation_54 (Activation)      (None, 8, 36)        0           add_27[0][0]
__________________________________________________________________________________________________
lambda_9 (Lambda)               (None, 1, 36)        0           activation_54[0][0]
__________________________________________________________________________________________________
conv1d_9 (Conv1D)               (None, 1, 1)         36          lambda_9[0][0]
==================================================================================================
Total params: 12,096
Trainable params: 12,096
Non-trainable params: 0
__________________________________________________________________________________________________
None
36/36Model: "model_10"
__________________________________________________________________________________________________
Layer (type)                    Output Shape         Param #     Connected to
==================================================================================================
input_10 (InputLayer)           (None, 8, 4)         0
__________________________________________________________________________________________________
1x1_initial_conv (Conv1D)       (None, 8, 40)        200         input_10[0][0]
__________________________________________________________________________________________________
dilated_conv_i0_d1 (Conv1D)     (None, 8, 40)        3240        1x1_initial_conv[0][0]
__________________________________________________________________________________________________
1x1_conv_d1 (Conv1D)            (None, 8, 40)        1640        1x1_initial_conv[0][0]
__________________________________________________________________________________________________
activation_55 (Activation)      (None, 8, 40)        0           dilated_conv_i0_d1[0][0]
__________________________________________________________________________________________________
add_28 (Add)                    (None, 8, 40)        0           1x1_conv_d1[0][0]
                                                                 activation_55[0][0]
__________________________________________________________________________________________________
activation_56 (Activation)      (None, 8, 40)        0           add_28[0][0]
__________________________________________________________________________________________________
dilated_conv_i0_d2 (Conv1D)     (None, 8, 40)        3240        activation_56[0][0]
__________________________________________________________________________________________________
1x1_conv_d2 (Conv1D)            (None, 8, 40)        1640        activation_56[0][0]
__________________________________________________________________________________________________
activation_57 (Activation)      (None, 8, 40)        0           dilated_conv_i0_d2[0][0]
__________________________________________________________________________________________________
add_29 (Add)                    (None, 8, 40)        0           1x1_conv_d2[0][0]
                                                                 activation_57[0][0]
__________________________________________________________________________________________________
activation_58 (Activation)      (None, 8, 40)        0           add_29[0][0]
__________________________________________________________________________________________________
dilated_conv_i0_d4 (Conv1D)     (None, 8, 40)        3240        activation_58[0][0]
__________________________________________________________________________________________________
1x1_conv_d4 (Conv1D)            (None, 8, 40)        1640        activation_58[0][0]
__________________________________________________________________________________________________
activation_59 (Activation)      (None, 8, 40)        0           dilated_conv_i0_d4[0][0]
__________________________________________________________________________________________________
add_30 (Add)                    (None, 8, 40)        0           1x1_conv_d4[0][0]
                                                                 activation_59[0][0]
__________________________________________________________________________________________________
activation_60 (Activation)      (None, 8, 40)        0           add_30[0][0]
__________________________________________________________________________________________________
lambda_10 (Lambda)              (None, 1, 40)        0           activation_60[0][0]
__________________________________________________________________________________________________
conv1d_10 (Conv1D)              (None, 1, 1)         40          lambda_10[0][0]
==================================================================================================
Total params: 14,880
Trainable params: 14,880
Non-trainable params: 0
__________________________________________________________________________________________________
None
36/36Model: "model_11"
__________________________________________________________________________________________________
Layer (type)                    Output Shape         Param #     Connected to
==================================================================================================
input_11 (InputLayer)           (None, 8, 4)         0
__________________________________________________________________________________________________
1x1_initial_conv (Conv1D)       (None, 8, 44)        220         input_11[0][0]
__________________________________________________________________________________________________
dilated_conv_i0_d1 (Conv1D)     (None, 8, 44)        3916        1x1_initial_conv[0][0]
__________________________________________________________________________________________________
1x1_conv_d1 (Conv1D)            (None, 8, 44)        1980        1x1_initial_conv[0][0]
__________________________________________________________________________________________________
activation_61 (Activation)      (None, 8, 44)        0           dilated_conv_i0_d1[0][0]
__________________________________________________________________________________________________
add_31 (Add)                    (None, 8, 44)        0           1x1_conv_d1[0][0]
                                                                 activation_61[0][0]
__________________________________________________________________________________________________
activation_62 (Activation)      (None, 8, 44)        0           add_31[0][0]
__________________________________________________________________________________________________
dilated_conv_i0_d2 (Conv1D)     (None, 8, 44)        3916        activation_62[0][0]
__________________________________________________________________________________________________
1x1_conv_d2 (Conv1D)            (None, 8, 44)        1980        activation_62[0][0]
__________________________________________________________________________________________________
activation_63 (Activation)      (None, 8, 44)        0           dilated_conv_i0_d2[0][0]
__________________________________________________________________________________________________
add_32 (Add)                    (None, 8, 44)        0           1x1_conv_d2[0][0]
                                                                 activation_63[0][0]
__________________________________________________________________________________________________
activation_64 (Activation)      (None, 8, 44)        0           add_32[0][0]
__________________________________________________________________________________________________
dilated_conv_i0_d4 (Conv1D)     (None, 8, 44)        3916        activation_64[0][0]
__________________________________________________________________________________________________
1x1_conv_d4 (Conv1D)            (None, 8, 44)        1980        activation_64[0][0]
__________________________________________________________________________________________________
activation_65 (Activation)      (None, 8, 44)        0           dilated_conv_i0_d4[0][0]
__________________________________________________________________________________________________
add_33 (Add)                    (None, 8, 44)        0           1x1_conv_d4[0][0]
                                                                 activation_65[0][0]
__________________________________________________________________________________________________
activation_66 (Activation)      (None, 8, 44)        0           add_33[0][0]
__________________________________________________________________________________________________
lambda_11 (Lambda)              (None, 1, 44)        0           activation_66[0][0]
__________________________________________________________________________________________________
conv1d_11 (Conv1D)              (None, 1, 1)         44          lambda_11[0][0]
==================================================================================================
Total params: 17,952
Trainable params: 17,952
Non-trainable params: 0
__________________________________________________________________________________________________
None
36/36Model: "model_12"
__________________________________________________________________________________________________
Layer (type)                    Output Shape         Param #     Connected to
==================================================================================================
input_12 (InputLayer)           (None, 8, 4)         0
__________________________________________________________________________________________________
1x1_initial_conv (Conv1D)       (None, 8, 48)        240         input_12[0][0]
__________________________________________________________________________________________________
dilated_conv_i0_d1 (Conv1D)     (None, 8, 48)        4656        1x1_initial_conv[0][0]
__________________________________________________________________________________________________
1x1_conv_d1 (Conv1D)            (None, 8, 48)        2352        1x1_initial_conv[0][0]
__________________________________________________________________________________________________
activation_67 (Activation)      (None, 8, 48)        0           dilated_conv_i0_d1[0][0]
__________________________________________________________________________________________________
add_34 (Add)                    (None, 8, 48)        0           1x1_conv_d1[0][0]
                                                                 activation_67[0][0]
__________________________________________________________________________________________________
activation_68 (Activation)      (None, 8, 48)        0           add_34[0][0]
__________________________________________________________________________________________________
dilated_conv_i0_d2 (Conv1D)     (None, 8, 48)        4656        activation_68[0][0]
__________________________________________________________________________________________________
1x1_conv_d2 (Conv1D)            (None, 8, 48)        2352        activation_68[0][0]
__________________________________________________________________________________________________
activation_69 (Activation)      (None, 8, 48)        0           dilated_conv_i0_d2[0][0]
__________________________________________________________________________________________________
add_35 (Add)                    (None, 8, 48)        0           1x1_conv_d2[0][0]
                                                                 activation_69[0][0]
__________________________________________________________________________________________________
activation_70 (Activation)      (None, 8, 48)        0           add_35[0][0]
__________________________________________________________________________________________________
dilated_conv_i0_d4 (Conv1D)     (None, 8, 48)        4656        activation_70[0][0]
__________________________________________________________________________________________________
1x1_conv_d4 (Conv1D)            (None, 8, 48)        2352        activation_70[0][0]
__________________________________________________________________________________________________
activation_71 (Activation)      (None, 8, 48)        0           dilated_conv_i0_d4[0][0]
__________________________________________________________________________________________________
add_36 (Add)                    (None, 8, 48)        0           1x1_conv_d4[0][0]
                                                                 activation_71[0][0]
__________________________________________________________________________________________________
activation_72 (Activation)      (None, 8, 48)        0           add_36[0][0]
__________________________________________________________________________________________________
lambda_12 (Lambda)              (None, 1, 48)        0           activation_72[0][0]
__________________________________________________________________________________________________
conv1d_12 (Conv1D)              (None, 1, 1)         48          lambda_12[0][0]
==================================================================================================
Total params: 21,312
Trainable params: 21,312
Non-trainable params: 0
__________________________________________________________________________________________________
None
36/36Model: "model_13"
__________________________________________________________________________________________________
Layer (type)                    Output Shape         Param #     Connected to
==================================================================================================
input_13 (InputLayer)           (None, 8, 4)         0
__________________________________________________________________________________________________
1x1_initial_conv (Conv1D)       (None, 8, 52)        260         input_13[0][0]
__________________________________________________________________________________________________
dilated_conv_i0_d1 (Conv1D)     (None, 8, 52)        5460        1x1_initial_conv[0][0]
__________________________________________________________________________________________________
1x1_conv_d1 (Conv1D)            (None, 8, 52)        2756        1x1_initial_conv[0][0]
__________________________________________________________________________________________________
activation_73 (Activation)      (None, 8, 52)        0           dilated_conv_i0_d1[0][0]
__________________________________________________________________________________________________
add_37 (Add)                    (None, 8, 52)        0           1x1_conv_d1[0][0]
                                                                 activation_73[0][0]
__________________________________________________________________________________________________
activation_74 (Activation)      (None, 8, 52)        0           add_37[0][0]
__________________________________________________________________________________________________
dilated_conv_i0_d2 (Conv1D)     (None, 8, 52)        5460        activation_74[0][0]
__________________________________________________________________________________________________
1x1_conv_d2 (Conv1D)            (None, 8, 52)        2756        activation_74[0][0]
__________________________________________________________________________________________________
activation_75 (Activation)      (None, 8, 52)        0           dilated_conv_i0_d2[0][0]
__________________________________________________________________________________________________
add_38 (Add)                    (None, 8, 52)        0           1x1_conv_d2[0][0]
                                                                 activation_75[0][0]
__________________________________________________________________________________________________
activation_76 (Activation)      (None, 8, 52)        0           add_38[0][0]
__________________________________________________________________________________________________
dilated_conv_i0_d4 (Conv1D)     (None, 8, 52)        5460        activation_76[0][0]
__________________________________________________________________________________________________
1x1_conv_d4 (Conv1D)            (None, 8, 52)        2756        activation_76[0][0]
__________________________________________________________________________________________________
activation_77 (Activation)      (None, 8, 52)        0           dilated_conv_i0_d4[0][0]
__________________________________________________________________________________________________
add_39 (Add)                    (None, 8, 52)        0           1x1_conv_d4[0][0]
                                                                 activation_77[0][0]
__________________________________________________________________________________________________
activation_78 (Activation)      (None, 8, 52)        0           add_39[0][0]
__________________________________________________________________________________________________
lambda_13 (Lambda)              (None, 1, 52)        0           activation_78[0][0]
__________________________________________________________________________________________________
conv1d_13 (Conv1D)              (None, 1, 1)         52          lambda_13[0][0]
==================================================================================================
Total params: 24,960
Trainable params: 24,960
Non-trainable params: 0
__________________________________________________________________________________________________
None
36/36Model: "model_14"
__________________________________________________________________________________________________
Layer (type)                    Output Shape         Param #     Connected to
==================================================================================================
input_14 (InputLayer)           (None, 8, 4)         0
__________________________________________________________________________________________________
1x1_initial_conv (Conv1D)       (None, 8, 56)        280         input_14[0][0]
__________________________________________________________________________________________________
dilated_conv_i0_d1 (Conv1D)     (None, 8, 56)        6328        1x1_initial_conv[0][0]
__________________________________________________________________________________________________
1x1_conv_d1 (Conv1D)            (None, 8, 56)        3192        1x1_initial_conv[0][0]
__________________________________________________________________________________________________
activation_79 (Activation)      (None, 8, 56)        0           dilated_conv_i0_d1[0][0]
__________________________________________________________________________________________________
add_40 (Add)                    (None, 8, 56)        0           1x1_conv_d1[0][0]
                                                                 activation_79[0][0]
__________________________________________________________________________________________________
activation_80 (Activation)      (None, 8, 56)        0           add_40[0][0]
__________________________________________________________________________________________________
dilated_conv_i0_d2 (Conv1D)     (None, 8, 56)        6328        activation_80[0][0]
__________________________________________________________________________________________________
1x1_conv_d2 (Conv1D)            (None, 8, 56)        3192        activation_80[0][0]
__________________________________________________________________________________________________
activation_81 (Activation)      (None, 8, 56)        0           dilated_conv_i0_d2[0][0]
__________________________________________________________________________________________________
add_41 (Add)                    (None, 8, 56)        0           1x1_conv_d2[0][0]
                                                                 activation_81[0][0]
__________________________________________________________________________________________________
activation_82 (Activation)      (None, 8, 56)        0           add_41[0][0]
__________________________________________________________________________________________________
dilated_conv_i0_d4 (Conv1D)     (None, 8, 56)        6328        activation_82[0][0]
__________________________________________________________________________________________________
1x1_conv_d4 (Conv1D)            (None, 8, 56)        3192        activation_82[0][0]
__________________________________________________________________________________________________
activation_83 (Activation)      (None, 8, 56)        0           dilated_conv_i0_d4[0][0]
__________________________________________________________________________________________________
add_42 (Add)                    (None, 8, 56)        0           1x1_conv_d4[0][0]
                                                                 activation_83[0][0]
__________________________________________________________________________________________________
activation_84 (Activation)      (None, 8, 56)        0           add_42[0][0]
__________________________________________________________________________________________________
lambda_14 (Lambda)              (None, 1, 56)        0           activation_84[0][0]
__________________________________________________________________________________________________
conv1d_14 (Conv1D)              (None, 1, 1)         56          lambda_14[0][0]
==================================================================================================
Total params: 28,896
Trainable params: 28,896
Non-trainable params: 0
__________________________________________________________________________________________________
None
36/36Model: "model_15"
__________________________________________________________________________________________________
Layer (type)                    Output Shape         Param #     Connected to
==================================================================================================
input_15 (InputLayer)           (None, 8, 4)         0
__________________________________________________________________________________________________
1x1_initial_conv (Conv1D)       (None, 8, 60)        300         input_15[0][0]
__________________________________________________________________________________________________
dilated_conv_i0_d1 (Conv1D)     (None, 8, 60)        7260        1x1_initial_conv[0][0]
__________________________________________________________________________________________________
1x1_conv_d1 (Conv1D)            (None, 8, 60)        3660        1x1_initial_conv[0][0]
__________________________________________________________________________________________________
activation_85 (Activation)      (None, 8, 60)        0           dilated_conv_i0_d1[0][0]
__________________________________________________________________________________________________
add_43 (Add)                    (None, 8, 60)        0           1x1_conv_d1[0][0]
                                                                 activation_85[0][0]
__________________________________________________________________________________________________
activation_86 (Activation)      (None, 8, 60)        0           add_43[0][0]
__________________________________________________________________________________________________
dilated_conv_i0_d2 (Conv1D)     (None, 8, 60)        7260        activation_86[0][0]
__________________________________________________________________________________________________
1x1_conv_d2 (Conv1D)            (None, 8, 60)        3660        activation_86[0][0]
__________________________________________________________________________________________________
activation_87 (Activation)      (None, 8, 60)        0           dilated_conv_i0_d2[0][0]
__________________________________________________________________________________________________
add_44 (Add)                    (None, 8, 60)        0           1x1_conv_d2[0][0]
                                                                 activation_87[0][0]
__________________________________________________________________________________________________
activation_88 (Activation)      (None, 8, 60)        0           add_44[0][0]
__________________________________________________________________________________________________
dilated_conv_i0_d4 (Conv1D)     (None, 8, 60)        7260        activation_88[0][0]
__________________________________________________________________________________________________
1x1_conv_d4 (Conv1D)            (None, 8, 60)        3660        activation_88[0][0]
__________________________________________________________________________________________________
activation_89 (Activation)      (None, 8, 60)        0           dilated_conv_i0_d4[0][0]
__________________________________________________________________________________________________
add_45 (Add)                    (None, 8, 60)        0           1x1_conv_d4[0][0]
                                                                 activation_89[0][0]
__________________________________________________________________________________________________
activation_90 (Activation)      (None, 8, 60)        0           add_45[0][0]
__________________________________________________________________________________________________
lambda_15 (Lambda)              (None, 1, 60)        0           activation_90[0][0]
__________________________________________________________________________________________________
conv1d_15 (Conv1D)              (None, 1, 1)         60          lambda_15[0][0]
==================================================================================================
Total params: 33,120
Trainable params: 33,120
Non-trainable params: 0
__________________________________________________________________________________________________
None
36/36Model: "model_16"
__________________________________________________________________________________________________
Layer (type)                    Output Shape         Param #     Connected to
==================================================================================================
input_16 (InputLayer)           (None, 8, 4)         0
__________________________________________________________________________________________________
1x1_initial_conv (Conv1D)       (None, 8, 64)        320         input_16[0][0]
__________________________________________________________________________________________________
dilated_conv_i0_d1 (Conv1D)     (None, 8, 64)        8256        1x1_initial_conv[0][0]
__________________________________________________________________________________________________
1x1_conv_d1 (Conv1D)            (None, 8, 64)        4160        1x1_initial_conv[0][0]
__________________________________________________________________________________________________
activation_91 (Activation)      (None, 8, 64)        0           dilated_conv_i0_d1[0][0]
__________________________________________________________________________________________________
add_46 (Add)                    (None, 8, 64)        0           1x1_conv_d1[0][0]
                                                                 activation_91[0][0]
__________________________________________________________________________________________________
activation_92 (Activation)      (None, 8, 64)        0           add_46[0][0]
__________________________________________________________________________________________________
dilated_conv_i0_d2 (Conv1D)     (None, 8, 64)        8256        activation_92[0][0]
__________________________________________________________________________________________________
1x1_conv_d2 (Conv1D)            (None, 8, 64)        4160        activation_92[0][0]
__________________________________________________________________________________________________
activation_93 (Activation)      (None, 8, 64)        0           dilated_conv_i0_d2[0][0]
__________________________________________________________________________________________________
add_47 (Add)                    (None, 8, 64)        0           1x1_conv_d2[0][0]
                                                                 activation_93[0][0]
__________________________________________________________________________________________________
activation_94 (Activation)      (None, 8, 64)        0           add_47[0][0]
__________________________________________________________________________________________________
dilated_conv_i0_d4 (Conv1D)     (None, 8, 64)        8256        activation_94[0][0]
__________________________________________________________________________________________________
1x1_conv_d4 (Conv1D)            (None, 8, 64)        4160        activation_94[0][0]
__________________________________________________________________________________________________
activation_95 (Activation)      (None, 8, 64)        0           dilated_conv_i0_d4[0][0]
__________________________________________________________________________________________________
add_48 (Add)                    (None, 8, 64)        0           1x1_conv_d4[0][0]
                                                                 activation_95[0][0]
__________________________________________________________________________________________________
activation_96 (Activation)      (None, 8, 64)        0           add_48[0][0]
__________________________________________________________________________________________________
lambda_16 (Lambda)              (None, 1, 64)        0           activation_96[0][0]
__________________________________________________________________________________________________
conv1d_16 (Conv1D)              (None, 1, 1)         64          lambda_16[0][0]
==================================================================================================
Total params: 37,632
Trainable params: 37,632
Non-trainable params: 0
__________________________________________________________________________________________________
None
36/36Model: "model_17"
__________________________________________________________________________________________________
Layer (type)                    Output Shape         Param #     Connected to
==================================================================================================
input_17 (InputLayer)           (None, 8, 4)         0
__________________________________________________________________________________________________
1x1_initial_conv (Conv1D)       (None, 8, 68)        340         input_17[0][0]
__________________________________________________________________________________________________
dilated_conv_i0_d1 (Conv1D)     (None, 8, 68)        9316        1x1_initial_conv[0][0]
__________________________________________________________________________________________________
1x1_conv_d1 (Conv1D)            (None, 8, 68)        4692        1x1_initial_conv[0][0]
__________________________________________________________________________________________________
activation_97 (Activation)      (None, 8, 68)        0           dilated_conv_i0_d1[0][0]
__________________________________________________________________________________________________
add_49 (Add)                    (None, 8, 68)        0           1x1_conv_d1[0][0]
                                                                 activation_97[0][0]
__________________________________________________________________________________________________
activation_98 (Activation)      (None, 8, 68)        0           add_49[0][0]
__________________________________________________________________________________________________
dilated_conv_i0_d2 (Conv1D)     (None, 8, 68)        9316        activation_98[0][0]
__________________________________________________________________________________________________
1x1_conv_d2 (Conv1D)            (None, 8, 68)        4692        activation_98[0][0]
__________________________________________________________________________________________________
activation_99 (Activation)      (None, 8, 68)        0           dilated_conv_i0_d2[0][0]
__________________________________________________________________________________________________
add_50 (Add)                    (None, 8, 68)        0           1x1_conv_d2[0][0]
                                                                 activation_99[0][0]
__________________________________________________________________________________________________
activation_100 (Activation)     (None, 8, 68)        0           add_50[0][0]
__________________________________________________________________________________________________
dilated_conv_i0_d4 (Conv1D)     (None, 8, 68)        9316        activation_100[0][0]
__________________________________________________________________________________________________
1x1_conv_d4 (Conv1D)            (None, 8, 68)        4692        activation_100[0][0]
__________________________________________________________________________________________________
activation_101 (Activation)     (None, 8, 68)        0           dilated_conv_i0_d4[0][0]
__________________________________________________________________________________________________
add_51 (Add)                    (None, 8, 68)        0           1x1_conv_d4[0][0]
                                                                 activation_101[0][0]
__________________________________________________________________________________________________
activation_102 (Activation)     (None, 8, 68)        0           add_51[0][0]
__________________________________________________________________________________________________
lambda_17 (Lambda)              (None, 1, 68)        0           activation_102[0][0]
__________________________________________________________________________________________________
conv1d_17 (Conv1D)              (None, 1, 1)         68          lambda_17[0][0]
==================================================================================================
Total params: 42,432
Trainable params: 42,432
Non-trainable params: 0
__________________________________________________________________________________________________
None
36/36
